node {
  name: "input_1"
  op: "Placeholder"
  attr {
    key: "dtype"
    value {
      type: DT_FLOAT
    }
  }
  attr {
    key: "shape"
    value {
      shape {
        dim {
          size: -1
        }
        dim {
          size: 45
        }
        dim {
          size: 12
        }
      }
    }
  }
}
node {
  name: "input_5"
  op: "Placeholder"
  attr {
    key: "dtype"
    value {
      type: DT_FLOAT
    }
  }
  attr {
    key: "shape"
    value {
      shape {
        dim {
          size: -1
        }
      }
    }
  }
}
node {
  name: "input_4"
  op: "Placeholder"
  attr {
    key: "dtype"
    value {
      type: DT_FLOAT
    }
  }
  attr {
    key: "shape"
    value {
      shape {
        dim {
          size: -1
        }
        dim {
          size: 45
        }
        dim {
          size: 1
        }
      }
    }
  }
}
node {
  name: "input_3"
  op: "Placeholder"
  attr {
    key: "dtype"
    value {
      type: DT_FLOAT
    }
  }
  attr {
    key: "shape"
    value {
      shape {
        dim {
          size: -1
        }
        dim {
          size: 45
        }
        dim {
          size: 40
        }
        dim {
          size: 4
        }
      }
    }
  }
}
node {
  name: "input_2"
  op: "Placeholder"
  attr {
    key: "dtype"
    value {
      type: DT_FLOAT
    }
  }
  attr {
    key: "shape"
    value {
      shape {
        dim {
          size: -1
        }
        dim {
          size: 18
        }
      }
    }
  }
}
node {
  name: "deep_cluster_gn/SA_clclass/SA_lnorm2_SA_clclass/Reshape/shape/0"
  op: "Const"
  attr {
    key: "dtype"
    value {
      type: DT_INT32
    }
  }
  attr {
    key: "value"
    value {
      tensor {
        dtype: DT_INT32
        tensor_shape {
        }
        int_val: 1
      }
    }
  }
}
node {
  name: "deep_cluster_gn/SA_clclass/SA_lnorm2_SA_clclass/mul/x"
  op: "Const"
  attr {
    key: "dtype"
    value {
      type: DT_INT32
    }
  }
  attr {
    key: "value"
    value {
      tensor {
        dtype: DT_INT32
        tensor_shape {
        }
        int_val: 1
      }
    }
  }
}
node {
  name: "deep_cluster_gn/SA_clclass/SA_lnorm1_SA_clclass/Reshape/shape/0"
  op: "Const"
  attr {
    key: "dtype"
    value {
      type: DT_INT32
    }
  }
  attr {
    key: "value"
    value {
      tensor {
        dtype: DT_INT32
        tensor_shape {
        }
        int_val: 1
      }
    }
  }
}
node {
  name: "deep_cluster_gn/SA_clclass/SA_lnorm1_SA_clclass/mul/x"
  op: "Const"
  attr {
    key: "dtype"
    value {
      type: DT_INT32
    }
  }
  attr {
    key: "value"
    value {
      tensor {
        dtype: DT_INT32
        tensor_shape {
        }
        int_val: 1
      }
    }
  }
}
node {
  name: "deep_cluster_gn/gcn_output_layernorm/Reshape/shape/0"
  op: "Const"
  attr {
    key: "dtype"
    value {
      type: DT_INT32
    }
  }
  attr {
    key: "value"
    value {
      tensor {
        dtype: DT_INT32
        tensor_shape {
        }
        int_val: 1
      }
    }
  }
}
node {
  name: "deep_cluster_gn/gcn_output_layernorm/mul/x"
  op: "Const"
  attr {
    key: "dtype"
    value {
      type: DT_INT32
    }
  }
  attr {
    key: "value"
    value {
      tensor {
        dtype: DT_INT32
        tensor_shape {
        }
        int_val: 1
      }
    }
  }
}
node {
  name: "deep_cluster_gn/graph_builder/norm_nodes_feats/Reshape/shape/0"
  op: "Const"
  attr {
    key: "dtype"
    value {
      type: DT_INT32
    }
  }
  attr {
    key: "value"
    value {
      tensor {
        dtype: DT_INT32
        tensor_shape {
        }
        int_val: 1
      }
    }
  }
}
node {
  name: "deep_cluster_gn/graph_builder/norm_nodes_feats/mul/x"
  op: "Const"
  attr {
    key: "dtype"
    value {
      type: DT_INT32
    }
  }
  attr {
    key: "value"
    value {
      tensor {
        dtype: DT_INT32
        tensor_shape {
        }
        int_val: 1
      }
    }
  }
}
node {
  name: "deep_cluster_gn/concat/axis"
  op: "Const"
  attr {
    key: "dtype"
    value {
      type: DT_INT32
    }
  }
  attr {
    key: "value"
    value {
      tensor {
        dtype: DT_INT32
        tensor_shape {
        }
        int_val: -1
      }
    }
  }
}
node {
  name: "deep_cluster_gn/concat"
  op: "ConcatV2"
  input: "input_4"
  input: "input_1"
  input: "deep_cluster_gn/concat/axis"
  attr {
    key: "N"
    value {
      i: 2
    }
  }
  attr {
    key: "T"
    value {
      type: DT_FLOAT
    }
  }
  attr {
    key: "Tidx"
    value {
      type: DT_INT32
    }
  }
}
node {
  name: "deep_cluster_gn/graph_builder/rechit_gcn/out_norm_rechits/Reshape/shape/0"
  op: "Const"
  attr {
    key: "dtype"
    value {
      type: DT_INT32
    }
  }
  attr {
    key: "value"
    value {
      tensor {
        dtype: DT_INT32
        tensor_shape {
        }
        int_val: 1
      }
    }
  }
}
node {
  name: "deep_cluster_gn/graph_builder/rechit_gcn/out_norm_rechits/mul/x"
  op: "Const"
  attr {
    key: "dtype"
    value {
      type: DT_INT32
    }
  }
  attr {
    key: "value"
    value {
      tensor {
        dtype: DT_INT32
        tensor_shape {
        }
        int_val: 1
      }
    }
  }
}
node {
  name: "deep_cluster_gn/graph_builder/rechit_gcn/sa_norm_rechits/Reshape/shape/0"
  op: "Const"
  attr {
    key: "dtype"
    value {
      type: DT_INT32
    }
  }
  attr {
    key: "value"
    value {
      tensor {
        dtype: DT_INT32
        tensor_shape {
        }
        int_val: 1
      }
    }
  }
}
node {
  name: "deep_cluster_gn/graph_builder/rechit_gcn/sa_norm_rechits/mul/x"
  op: "Const"
  attr {
    key: "dtype"
    value {
      type: DT_INT32
    }
  }
  attr {
    key: "value"
    value {
      tensor {
        dtype: DT_INT32
        tensor_shape {
        }
        int_val: 1
      }
    }
  }
}
node {
  name: "deep_cluster_gn/graph_builder/rechit_gcn/GHC_rechits/MatMul_2/ReadVariableOp/resource"
  op: "Const"
  attr {
    key: "dtype"
    value {
      type: DT_FLOAT
    }
  }
  attr {
    key: "value"
    value {
      tensor {
        dtype: DT_FLOAT
        tensor_shape {
          dim {
            size: 4
          }
          dim {
            size: 25
          }
        }
        tensor_content: "…"
      }
    }
  }
}
node {
  name: "deep_cluster_gn/graph_builder/rechit_gcn/GHC_rechits/MatMul_2/ReadVariableOp"
  op: "Identity"
  input: "deep_cluster_gn/graph_builder/rechit_gcn/GHC_rechits/MatMul_2/ReadVariableOp/resource"
  attr {
    key: "T"
    value {
      type: DT_FLOAT
    }
  }
}
node {
  name: "deep_cluster_gn/graph_builder/rechit_gcn/GHC_rechits/MatMul_2"
  op: "BatchMatMulV2"
  input: "input_3"
  input: "deep_cluster_gn/graph_builder/rechit_gcn/GHC_rechits/MatMul_2/ReadVariableOp"
  attr {
    key: "T"
    value {
      type: DT_FLOAT
    }
  }
  attr {
    key: "adj_x"
    value {
      b: false
    }
  }
  attr {
    key: "adj_y"
    value {
      b: false
    }
  }
}
node {
  name: "deep_cluster_gn/graph_builder/rechit_gcn/GHC_rechits/add_1/ReadVariableOp/resource"
  op: "Const"
  attr {
    key: "dtype"
    value {
      type: DT_FLOAT
    }
  }
  attr {
    key: "value"
    value {
      tensor {
        dtype: DT_FLOAT
        tensor_shape {
          dim {
            size: 25
          }
        }
        tensor_content: "…"
      }
    }
  }
}
node {
  name: "deep_cluster_gn/graph_builder/rechit_gcn/GHC_rechits/add_1/ReadVariableOp"
  op: "Identity"
  input: "deep_cluster_gn/graph_builder/rechit_gcn/GHC_rechits/add_1/ReadVariableOp/resource"
  attr {
    key: "T"
    value {
      type: DT_FLOAT
    }
  }
}
node {
  name: "deep_cluster_gn/graph_builder/rechit_gcn/GHC_rechits/add_1"
  op: "AddV2"
  input: "deep_cluster_gn/graph_builder/rechit_gcn/GHC_rechits/MatMul_2"
  input: "deep_cluster_gn/graph_builder/rechit_gcn/GHC_rechits/add_1/ReadVariableOp"
  attr {
    key: "T"
    value {
      type: DT_FLOAT
    }
  }
}
node {
  name: "deep_cluster_gn/graph_builder/rechit_gcn/GHC_rechits/Sigmoid"
  op: "Sigmoid"
  input: "deep_cluster_gn/graph_builder/rechit_gcn/GHC_rechits/add_1"
  attr {
    key: "T"
    value {
      type: DT_FLOAT
    }
  }
}
node {
  name: "deep_cluster_gn/graph_builder/rechit_gcn/distance/mul_1/x"
  op: "Const"
  attr {
    key: "dtype"
    value {
      type: DT_FLOAT
    }
  }
  attr {
    key: "value"
    value {
      tensor {
        dtype: DT_FLOAT
        tensor_shape {
        }
        float_val: -1.0
      }
    }
  }
}
node {
  name: "deep_cluster_gn/graph_builder/rechit_gcn/strided_slice/stack"
  op: "Const"
  attr {
    key: "dtype"
    value {
      type: DT_INT32
    }
  }
  attr {
    key: "value"
    value {
      tensor {
        dtype: DT_INT32
        tensor_shape {
          dim {
            size: 4
          }
        }
        tensor_content: "\000\000\000\000\000\000\000\000\000\000\000\000\000\000\000\000"
      }
    }
  }
}
node {
  name: "deep_cluster_gn/graph_builder/rechit_gcn/strided_slice/stack_1"
  op: "Const"
  attr {
    key: "dtype"
    value {
      type: DT_INT32
    }
  }
  attr {
    key: "value"
    value {
      tensor {
        dtype: DT_INT32
        tensor_shape {
          dim {
            size: 4
          }
        }
        tensor_content: "\000\000\000\000\000\000\000\000\000\000\000\000\002\000\000\000"
      }
    }
  }
}
node {
  name: "deep_cluster_gn/graph_builder/rechit_gcn/strided_slice/stack_2"
  op: "Const"
  attr {
    key: "dtype"
    value {
      type: DT_INT32
    }
  }
  attr {
    key: "value"
    value {
      tensor {
        dtype: DT_INT32
        tensor_shape {
          dim {
            size: 4
          }
        }
        tensor_content: "\001\000\000\000\001\000\000\000\001\000\000\000\001\000\000\000"
      }
    }
  }
}
node {
  name: "deep_cluster_gn/graph_builder/rechit_gcn/strided_slice"
  op: "StridedSlice"
  input: "input_3"
  input: "deep_cluster_gn/graph_builder/rechit_gcn/strided_slice/stack"
  input: "deep_cluster_gn/graph_builder/rechit_gcn/strided_slice/stack_1"
  input: "deep_cluster_gn/graph_builder/rechit_gcn/strided_slice/stack_2"
  attr {
    key: "Index"
    value {
      type: DT_INT32
    }
  }
  attr {
    key: "T"
    value {
      type: DT_FLOAT
    }
  }
  attr {
    key: "begin_mask"
    value {
      i: 7
    }
  }
  attr {
    key: "ellipsis_mask"
    value {
      i: 0
    }
  }
  attr {
    key: "end_mask"
    value {
      i: 7
    }
  }
  attr {
    key: "new_axis_mask"
    value {
      i: 0
    }
  }
  attr {
    key: "shrink_axis_mask"
    value {
      i: 0
    }
  }
}
node {
  name: "deep_cluster_gn/graph_builder/rechit_gcn/distance/Square"
  op: "Square"
  input: "deep_cluster_gn/graph_builder/rechit_gcn/strided_slice"
  attr {
    key: "T"
    value {
      type: DT_FLOAT
    }
  }
}
node {
  name: "deep_cluster_gn/graph_builder/rechit_gcn/distance/Sum/reduction_indices"
  op: "Const"
  attr {
    key: "dtype"
    value {
      type: DT_INT32
    }
  }
  attr {
    key: "value"
    value {
      tensor {
        dtype: DT_INT32
        tensor_shape {
        }
        int_val: -1
      }
    }
  }
}
node {
  name: "deep_cluster_gn/graph_builder/rechit_gcn/distance/Sum"
  op: "Sum"
  input: "deep_cluster_gn/graph_builder/rechit_gcn/distance/Square"
  input: "deep_cluster_gn/graph_builder/rechit_gcn/distance/Sum/reduction_indices"
  attr {
    key: "T"
    value {
      type: DT_FLOAT
    }
  }
  attr {
    key: "Tidx"
    value {
      type: DT_INT32
    }
  }
  attr {
    key: "keep_dims"
    value {
      b: false
    }
  }
}
node {
  name: "deep_cluster_gn/graph_builder/rechit_gcn/distance/Shape"
  op: "Shape"
  input: "deep_cluster_gn/graph_builder/rechit_gcn/distance/Sum"
  attr {
    key: "T"
    value {
      type: DT_FLOAT
    }
  }
  attr {
    key: "out_type"
    value {
      type: DT_INT32
    }
  }
}
node {
  name: "deep_cluster_gn/graph_builder/rechit_gcn/distance/strided_slice/stack"
  op: "Const"
  attr {
    key: "dtype"
    value {
      type: DT_INT32
    }
  }
  attr {
    key: "value"
    value {
      tensor {
        dtype: DT_INT32
        tensor_shape {
          dim {
            size: 1
          }
        }
        int_val: 0
      }
    }
  }
}
node {
  name: "deep_cluster_gn/graph_builder/rechit_gcn/distance/strided_slice/stack_1"
  op: "Const"
  attr {
    key: "dtype"
    value {
      type: DT_INT32
    }
  }
  attr {
    key: "value"
    value {
      tensor {
        dtype: DT_INT32
        tensor_shape {
          dim {
            size: 1
          }
        }
        int_val: 1
      }
    }
  }
}
node {
  name: "deep_cluster_gn/graph_builder/rechit_gcn/distance/strided_slice/stack_2"
  op: "Const"
  attr {
    key: "dtype"
    value {
      type: DT_INT32
    }
  }
  attr {
    key: "value"
    value {
      tensor {
        dtype: DT_INT32
        tensor_shape {
          dim {
            size: 1
          }
        }
        int_val: 1
      }
    }
  }
}
node {
  name: "deep_cluster_gn/graph_builder/rechit_gcn/distance/strided_slice"
  op: "StridedSlice"
  input: "deep_cluster_gn/graph_builder/rechit_gcn/distance/Shape"
  input: "deep_cluster_gn/graph_builder/rechit_gcn/distance/strided_slice/stack"
  input: "deep_cluster_gn/graph_builder/rechit_gcn/distance/strided_slice/stack_1"
  input: "deep_cluster_gn/graph_builder/rechit_gcn/distance/strided_slice/stack_2"
  attr {
    key: "Index"
    value {
      type: DT_INT32
    }
  }
  attr {
    key: "T"
    value {
      type: DT_INT32
    }
  }
  attr {
    key: "begin_mask"
    value {
      i: 0
    }
  }
  attr {
    key: "ellipsis_mask"
    value {
      i: 0
    }
  }
  attr {
    key: "end_mask"
    value {
      i: 0
    }
  }
  attr {
    key: "new_axis_mask"
    value {
      i: 0
    }
  }
  attr {
    key: "shrink_axis_mask"
    value {
      i: 1
    }
  }
}
node {
  name: "deep_cluster_gn/graph_builder/rechit_gcn/distance/Shape_1"
  op: "Shape"
  input: "deep_cluster_gn/graph_builder/rechit_gcn/distance/Sum"
  attr {
    key: "T"
    value {
      type: DT_FLOAT
    }
  }
  attr {
    key: "out_type"
    value {
      type: DT_INT32
    }
  }
}
node {
  name: "deep_cluster_gn/graph_builder/rechit_gcn/distance/strided_slice_1/stack"
  op: "Const"
  attr {
    key: "dtype"
    value {
      type: DT_INT32
    }
  }
  attr {
    key: "value"
    value {
      tensor {
        dtype: DT_INT32
        tensor_shape {
          dim {
            size: 1
          }
        }
        int_val: 1
      }
    }
  }
}
node {
  name: "deep_cluster_gn/graph_builder/rechit_gcn/distance/strided_slice_1/stack_1"
  op: "Const"
  attr {
    key: "dtype"
    value {
      type: DT_INT32
    }
  }
  attr {
    key: "value"
    value {
      tensor {
        dtype: DT_INT32
        tensor_shape {
          dim {
            size: 1
          }
        }
        int_val: 2
      }
    }
  }
}
node {
  name: "deep_cluster_gn/graph_builder/rechit_gcn/distance/strided_slice_1/stack_2"
  op: "Const"
  attr {
    key: "dtype"
    value {
      type: DT_INT32
    }
  }
  attr {
    key: "value"
    value {
      tensor {
        dtype: DT_INT32
        tensor_shape {
          dim {
            size: 1
          }
        }
        int_val: 1
      }
    }
  }
}
node {
  name: "deep_cluster_gn/graph_builder/rechit_gcn/distance/strided_slice_1"
  op: "StridedSlice"
  input: "deep_cluster_gn/graph_builder/rechit_gcn/distance/Shape_1"
  input: "deep_cluster_gn/graph_builder/rechit_gcn/distance/strided_slice_1/stack"
  input: "deep_cluster_gn/graph_builder/rechit_gcn/distance/strided_slice_1/stack_1"
  input: "deep_cluster_gn/graph_builder/rechit_gcn/distance/strided_slice_1/stack_2"
  attr {
    key: "Index"
    value {
      type: DT_INT32
    }
  }
  attr {
    key: "T"
    value {
      type: DT_INT32
    }
  }
  attr {
    key: "begin_mask"
    value {
      i: 0
    }
  }
  attr {
    key: "ellipsis_mask"
    value {
      i: 0
    }
  }
  attr {
    key: "end_mask"
    value {
      i: 0
    }
  }
  attr {
    key: "new_axis_mask"
    value {
      i: 0
    }
  }
  attr {
    key: "shrink_axis_mask"
    value {
      i: 1
    }
  }
}
node {
  name: "deep_cluster_gn/graph_builder/rechit_gcn/distance/Reshape/shape/2"
  op: "Const"
  attr {
    key: "dtype"
    value {
      type: DT_INT32
    }
  }
  attr {
    key: "value"
    value {
      tensor {
        dtype: DT_INT32
        tensor_shape {
        }
        int_val: -1
      }
    }
  }
}
node {
  name: "deep_cluster_gn/graph_builder/rechit_gcn/distance/Reshape/shape/3"
  op: "Const"
  attr {
    key: "dtype"
    value {
      type: DT_INT32
    }
  }
  attr {
    key: "value"
    value {
      tensor {
        dtype: DT_INT32
        tensor_shape {
        }
        int_val: 1
      }
    }
  }
}
node {
  name: "deep_cluster_gn/graph_builder/rechit_gcn/distance/Reshape/shape"
  op: "Pack"
  input: "deep_cluster_gn/graph_builder/rechit_gcn/distance/strided_slice"
  input: "deep_cluster_gn/graph_builder/rechit_gcn/distance/strided_slice_1"
  input: "deep_cluster_gn/graph_builder/rechit_gcn/distance/Reshape/shape/2"
  input: "deep_cluster_gn/graph_builder/rechit_gcn/distance/Reshape/shape/3"
  attr {
    key: "N"
    value {
      i: 4
    }
  }
  attr {
    key: "T"
    value {
      type: DT_INT32
    }
  }
  attr {
    key: "axis"
    value {
      i: 0
    }
  }
}
node {
  name: "deep_cluster_gn/graph_builder/rechit_gcn/distance/Reshape"
  op: "Reshape"
  input: "deep_cluster_gn/graph_builder/rechit_gcn/distance/Sum"
  input: "deep_cluster_gn/graph_builder/rechit_gcn/distance/Reshape/shape"
  attr {
    key: "T"
    value {
      type: DT_FLOAT
    }
  }
  attr {
    key: "Tshape"
    value {
      type: DT_INT32
    }
  }
}
node {
  name: "deep_cluster_gn/graph_builder/rechit_gcn/distance/mul/x"
  op: "Const"
  attr {
    key: "dtype"
    value {
      type: DT_FLOAT
    }
  }
  attr {
    key: "value"
    value {
      tensor {
        dtype: DT_FLOAT
        tensor_shape {
        }
        float_val: 2.0
      }
    }
  }
}
node {
  name: "deep_cluster_gn/graph_builder/rechit_gcn/distance/MatMul"
  op: "BatchMatMulV2"
  input: "deep_cluster_gn/graph_builder/rechit_gcn/strided_slice"
  input: "deep_cluster_gn/graph_builder/rechit_gcn/strided_slice"
  attr {
    key: "T"
    value {
      type: DT_FLOAT
    }
  }
  attr {
    key: "adj_x"
    value {
      b: false
    }
  }
  attr {
    key: "adj_y"
    value {
      b: true
    }
  }
}
node {
  name: "deep_cluster_gn/graph_builder/rechit_gcn/distance/mul"
  op: "Mul"
  input: "deep_cluster_gn/graph_builder/rechit_gcn/distance/mul/x"
  input: "deep_cluster_gn/graph_builder/rechit_gcn/distance/MatMul"
  attr {
    key: "T"
    value {
      type: DT_FLOAT
    }
  }
}
node {
  name: "deep_cluster_gn/graph_builder/rechit_gcn/distance/sub"
  op: "Sub"
  input: "deep_cluster_gn/graph_builder/rechit_gcn/distance/Reshape"
  input: "deep_cluster_gn/graph_builder/rechit_gcn/distance/mul"
  attr {
    key: "T"
    value {
      type: DT_FLOAT
    }
  }
}
node {
  name: "deep_cluster_gn/graph_builder/rechit_gcn/distance/Square_1"
  op: "Square"
  input: "deep_cluster_gn/graph_builder/rechit_gcn/strided_slice"
  attr {
    key: "T"
    value {
      type: DT_FLOAT
    }
  }
}
node {
  name: "deep_cluster_gn/graph_builder/rechit_gcn/distance/Sum_1/reduction_indices"
  op: "Const"
  attr {
    key: "dtype"
    value {
      type: DT_INT32
    }
  }
  attr {
    key: "value"
    value {
      tensor {
        dtype: DT_INT32
        tensor_shape {
        }
        int_val: -1
      }
    }
  }
}
node {
  name: "deep_cluster_gn/graph_builder/rechit_gcn/distance/Sum_1"
  op: "Sum"
  input: "deep_cluster_gn/graph_builder/rechit_gcn/distance/Square_1"
  input: "deep_cluster_gn/graph_builder/rechit_gcn/distance/Sum_1/reduction_indices"
  attr {
    key: "T"
    value {
      type: DT_FLOAT
    }
  }
  attr {
    key: "Tidx"
    value {
      type: DT_INT32
    }
  }
  attr {
    key: "keep_dims"
    value {
      b: false
    }
  }
}
node {
  name: "deep_cluster_gn/graph_builder/rechit_gcn/distance/Shape_2"
  op: "Shape"
  input: "deep_cluster_gn/graph_builder/rechit_gcn/distance/Sum_1"
  attr {
    key: "T"
    value {
      type: DT_FLOAT
    }
  }
  attr {
    key: "out_type"
    value {
      type: DT_INT32
    }
  }
}
node {
  name: "deep_cluster_gn/graph_builder/rechit_gcn/distance/strided_slice_2/stack"
  op: "Const"
  attr {
    key: "dtype"
    value {
      type: DT_INT32
    }
  }
  attr {
    key: "value"
    value {
      tensor {
        dtype: DT_INT32
        tensor_shape {
          dim {
            size: 1
          }
        }
        int_val: 0
      }
    }
  }
}
node {
  name: "deep_cluster_gn/graph_builder/rechit_gcn/distance/strided_slice_2/stack_1"
  op: "Const"
  attr {
    key: "dtype"
    value {
      type: DT_INT32
    }
  }
  attr {
    key: "value"
    value {
      tensor {
        dtype: DT_INT32
        tensor_shape {
          dim {
            size: 1
          }
        }
        int_val: 1
      }
    }
  }
}
node {
  name: "deep_cluster_gn/graph_builder/rechit_gcn/distance/strided_slice_2/stack_2"
  op: "Const"
  attr {
    key: "dtype"
    value {
      type: DT_INT32
    }
  }
  attr {
    key: "value"
    value {
      tensor {
        dtype: DT_INT32
        tensor_shape {
          dim {
            size: 1
          }
        }
        int_val: 1
      }
    }
  }
}
node {
  name: "deep_cluster_gn/graph_builder/rechit_gcn/distance/strided_slice_2"
  op: "StridedSlice"
  input: "deep_cluster_gn/graph_builder/rechit_gcn/distance/Shape_2"
  input: "deep_cluster_gn/graph_builder/rechit_gcn/distance/strided_slice_2/stack"
  input: "deep_cluster_gn/graph_builder/rechit_gcn/distance/strided_slice_2/stack_1"
  input: "deep_cluster_gn/graph_builder/rechit_gcn/distance/strided_slice_2/stack_2"
  attr {
    key: "Index"
    value {
      type: DT_INT32
    }
  }
  attr {
    key: "T"
    value {
      type: DT_INT32
    }
  }
  attr {
    key: "begin_mask"
    value {
      i: 0
    }
  }
  attr {
    key: "ellipsis_mask"
    value {
      i: 0
    }
  }
  attr {
    key: "end_mask"
    value {
      i: 0
    }
  }
  attr {
    key: "new_axis_mask"
    value {
      i: 0
    }
  }
  attr {
    key: "shrink_axis_mask"
    value {
      i: 1
    }
  }
}
node {
  name: "deep_cluster_gn/graph_builder/rechit_gcn/distance/Shape_3"
  op: "Shape"
  input: "deep_cluster_gn/graph_builder/rechit_gcn/distance/Sum_1"
  attr {
    key: "T"
    value {
      type: DT_FLOAT
    }
  }
  attr {
    key: "out_type"
    value {
      type: DT_INT32
    }
  }
}
node {
  name: "deep_cluster_gn/graph_builder/rechit_gcn/distance/strided_slice_3/stack"
  op: "Const"
  attr {
    key: "dtype"
    value {
      type: DT_INT32
    }
  }
  attr {
    key: "value"
    value {
      tensor {
        dtype: DT_INT32
        tensor_shape {
          dim {
            size: 1
          }
        }
        int_val: 1
      }
    }
  }
}
node {
  name: "deep_cluster_gn/graph_builder/rechit_gcn/distance/strided_slice_3/stack_1"
  op: "Const"
  attr {
    key: "dtype"
    value {
      type: DT_INT32
    }
  }
  attr {
    key: "value"
    value {
      tensor {
        dtype: DT_INT32
        tensor_shape {
          dim {
            size: 1
          }
        }
        int_val: 2
      }
    }
  }
}
node {
  name: "deep_cluster_gn/graph_builder/rechit_gcn/distance/strided_slice_3/stack_2"
  op: "Const"
  attr {
    key: "dtype"
    value {
      type: DT_INT32
    }
  }
  attr {
    key: "value"
    value {
      tensor {
        dtype: DT_INT32
        tensor_shape {
          dim {
            size: 1
          }
        }
        int_val: 1
      }
    }
  }
}
node {
  name: "deep_cluster_gn/graph_builder/rechit_gcn/distance/strided_slice_3"
  op: "StridedSlice"
  input: "deep_cluster_gn/graph_builder/rechit_gcn/distance/Shape_3"
  input: "deep_cluster_gn/graph_builder/rechit_gcn/distance/strided_slice_3/stack"
  input: "deep_cluster_gn/graph_builder/rechit_gcn/distance/strided_slice_3/stack_1"
  input: "deep_cluster_gn/graph_builder/rechit_gcn/distance/strided_slice_3/stack_2"
  attr {
    key: "Index"
    value {
      type: DT_INT32
    }
  }
  attr {
    key: "T"
    value {
      type: DT_INT32
    }
  }
  attr {
    key: "begin_mask"
    value {
      i: 0
    }
  }
  attr {
    key: "ellipsis_mask"
    value {
      i: 0
    }
  }
  attr {
    key: "end_mask"
    value {
      i: 0
    }
  }
  attr {
    key: "new_axis_mask"
    value {
      i: 0
    }
  }
  attr {
    key: "shrink_axis_mask"
    value {
      i: 1
    }
  }
}
node {
  name: "deep_cluster_gn/graph_builder/rechit_gcn/distance/Reshape_1/shape/2"
  op: "Const"
  attr {
    key: "dtype"
    value {
      type: DT_INT32
    }
  }
  attr {
    key: "value"
    value {
      tensor {
        dtype: DT_INT32
        tensor_shape {
        }
        int_val: 1
      }
    }
  }
}
node {
  name: "deep_cluster_gn/graph_builder/rechit_gcn/distance/Reshape_1/shape/3"
  op: "Const"
  attr {
    key: "dtype"
    value {
      type: DT_INT32
    }
  }
  attr {
    key: "value"
    value {
      tensor {
        dtype: DT_INT32
        tensor_shape {
        }
        int_val: -1
      }
    }
  }
}
node {
  name: "deep_cluster_gn/graph_builder/rechit_gcn/distance/Reshape_1/shape"
  op: "Pack"
  input: "deep_cluster_gn/graph_builder/rechit_gcn/distance/strided_slice_2"
  input: "deep_cluster_gn/graph_builder/rechit_gcn/distance/strided_slice_3"
  input: "deep_cluster_gn/graph_builder/rechit_gcn/distance/Reshape_1/shape/2"
  input: "deep_cluster_gn/graph_builder/rechit_gcn/distance/Reshape_1/shape/3"
  attr {
    key: "N"
    value {
      i: 4
    }
  }
  attr {
    key: "T"
    value {
      type: DT_INT32
    }
  }
  attr {
    key: "axis"
    value {
      i: 0
    }
  }
}
node {
  name: "deep_cluster_gn/graph_builder/rechit_gcn/distance/Reshape_1"
  op: "Reshape"
  input: "deep_cluster_gn/graph_builder/rechit_gcn/distance/Sum_1"
  input: "deep_cluster_gn/graph_builder/rechit_gcn/distance/Reshape_1/shape"
  attr {
    key: "T"
    value {
      type: DT_FLOAT
    }
  }
  attr {
    key: "Tshape"
    value {
      type: DT_INT32
    }
  }
}
node {
  name: "deep_cluster_gn/graph_builder/rechit_gcn/distance/add"
  op: "AddV2"
  input: "deep_cluster_gn/graph_builder/rechit_gcn/distance/sub"
  input: "deep_cluster_gn/graph_builder/rechit_gcn/distance/Reshape_1"
  attr {
    key: "T"
    value {
      type: DT_FLOAT
    }
  }
}
node {
  name: "deep_cluster_gn/graph_builder/rechit_gcn/distance/clip_by_value/Minimum/y"
  op: "Const"
  attr {
    key: "dtype"
    value {
      type: DT_FLOAT
    }
  }
  attr {
    key: "value"
    value {
      tensor {
        dtype: DT_FLOAT
        tensor_shape {
        }
        float_val: 999999995904.0
      }
    }
  }
}
node {
  name: "deep_cluster_gn/graph_builder/rechit_gcn/distance/clip_by_value/Minimum"
  op: "Minimum"
  input: "deep_cluster_gn/graph_builder/rechit_gcn/distance/add"
  input: "deep_cluster_gn/graph_builder/rechit_gcn/distance/clip_by_value/Minimum/y"
  attr {
    key: "T"
    value {
      type: DT_FLOAT
    }
  }
}
node {
  name: "deep_cluster_gn/graph_builder/rechit_gcn/distance/clip_by_value/y"
  op: "Const"
  attr {
    key: "dtype"
    value {
      type: DT_FLOAT
    }
  }
  attr {
    key: "value"
    value {
      tensor {
        dtype: DT_FLOAT
        tensor_shape {
        }
        float_val: 9.999999960041972e-13
      }
    }
  }
}
node {
  name: "deep_cluster_gn/graph_builder/rechit_gcn/distance/clip_by_value"
  op: "Maximum"
  input: "deep_cluster_gn/graph_builder/rechit_gcn/distance/clip_by_value/Minimum"
  input: "deep_cluster_gn/graph_builder/rechit_gcn/distance/clip_by_value/y"
  attr {
    key: "T"
    value {
      type: DT_FLOAT
    }
  }
}
node {
  name: "deep_cluster_gn/graph_builder/rechit_gcn/distance/Sqrt"
  op: "Sqrt"
  input: "deep_cluster_gn/graph_builder/rechit_gcn/distance/clip_by_value"
  attr {
    key: "T"
    value {
      type: DT_FLOAT
    }
  }
}
node {
  name: "deep_cluster_gn/graph_builder/rechit_gcn/distance/mul_1"
  op: "Mul"
  input: "deep_cluster_gn/graph_builder/rechit_gcn/distance/mul_1/x"
  input: "deep_cluster_gn/graph_builder/rechit_gcn/distance/Sqrt"
  attr {
    key: "T"
    value {
      type: DT_FLOAT
    }
  }
}
node {
  name: "deep_cluster_gn/graph_builder/rechit_gcn/distance/Exp"
  op: "Exp"
  input: "deep_cluster_gn/graph_builder/rechit_gcn/distance/mul_1"
  attr {
    key: "T"
    value {
      type: DT_FLOAT
    }
  }
}
node {
  name: "deep_cluster_gn/graph_builder/Sum/reduction_indices"
  op: "Const"
  attr {
    key: "dtype"
    value {
      type: DT_INT32
    }
  }
  attr {
    key: "value"
    value {
      tensor {
        dtype: DT_INT32
        tensor_shape {
        }
        int_val: -1
      }
    }
  }
}
node {
  name: "deep_cluster_gn/graph_builder/Sum"
  op: "Sum"
  input: "input_3"
  input: "deep_cluster_gn/graph_builder/Sum/reduction_indices"
  attr {
    key: "T"
    value {
      type: DT_FLOAT
    }
  }
  attr {
    key: "Tidx"
    value {
      type: DT_INT32
    }
  }
  attr {
    key: "keep_dims"
    value {
      b: false
    }
  }
}
node {
  name: "deep_cluster_gn/graph_builder/NotEqual/y"
  op: "Const"
  attr {
    key: "dtype"
    value {
      type: DT_FLOAT
    }
  }
  attr {
    key: "value"
    value {
      tensor {
        dtype: DT_FLOAT
        tensor_shape {
        }
        float_val: 0.0
      }
    }
  }
}
node {
  name: "deep_cluster_gn/graph_builder/NotEqual"
  op: "NotEqual"
  input: "deep_cluster_gn/graph_builder/Sum"
  input: "deep_cluster_gn/graph_builder/NotEqual/y"
  attr {
    key: "T"
    value {
      type: DT_FLOAT
    }
  }
  attr {
    key: "incompatible_shape_error"
    value {
      b: false
    }
  }
}
node {
  name: "deep_cluster_gn/graph_builder/Cast"
  op: "Cast"
  input: "deep_cluster_gn/graph_builder/NotEqual"
  attr {
    key: "DstT"
    value {
      type: DT_FLOAT
    }
  }
  attr {
    key: "SrcT"
    value {
      type: DT_BOOL
    }
  }
  attr {
    key: "Truncate"
    value {
      b: false
    }
  }
}
node {
  name: "deep_cluster_gn/graph_builder/rechit_gcn/strided_slice_1/stack"
  op: "Const"
  attr {
    key: "dtype"
    value {
      type: DT_INT32
    }
  }
  attr {
    key: "value"
    value {
      tensor {
        dtype: DT_INT32
        tensor_shape {
          dim {
            size: 4
          }
        }
        tensor_content: "\000\000\000\000\000\000\000\000\000\000\000\000\000\000\000\000"
      }
    }
  }
}
node {
  name: "deep_cluster_gn/graph_builder/rechit_gcn/strided_slice_1/stack_1"
  op: "Const"
  attr {
    key: "dtype"
    value {
      type: DT_INT32
    }
  }
  attr {
    key: "value"
    value {
      tensor {
        dtype: DT_INT32
        tensor_shape {
          dim {
            size: 4
          }
        }
        tensor_content: "\000\000\000\000\000\000\000\000\000\000\000\000\000\000\000\000"
      }
    }
  }
}
node {
  name: "deep_cluster_gn/graph_builder/rechit_gcn/strided_slice_1/stack_2"
  op: "Const"
  attr {
    key: "dtype"
    value {
      type: DT_INT32
    }
  }
  attr {
    key: "value"
    value {
      tensor {
        dtype: DT_INT32
        tensor_shape {
          dim {
            size: 4
          }
        }
        tensor_content: "\001\000\000\000\001\000\000\000\001\000\000\000\001\000\000\000"
      }
    }
  }
}
node {
  name: "deep_cluster_gn/graph_builder/rechit_gcn/strided_slice_1"
  op: "StridedSlice"
  input: "deep_cluster_gn/graph_builder/Cast"
  input: "deep_cluster_gn/graph_builder/rechit_gcn/strided_slice_1/stack"
  input: "deep_cluster_gn/graph_builder/rechit_gcn/strided_slice_1/stack_1"
  input: "deep_cluster_gn/graph_builder/rechit_gcn/strided_slice_1/stack_2"
  attr {
    key: "Index"
    value {
      type: DT_INT32
    }
  }
  attr {
    key: "T"
    value {
      type: DT_FLOAT
    }
  }
  attr {
    key: "begin_mask"
    value {
      i: 7
    }
  }
  attr {
    key: "ellipsis_mask"
    value {
      i: 0
    }
  }
  attr {
    key: "end_mask"
    value {
      i: 7
    }
  }
  attr {
    key: "new_axis_mask"
    value {
      i: 8
    }
  }
  attr {
    key: "shrink_axis_mask"
    value {
      i: 0
    }
  }
}
node {
  name: "deep_cluster_gn/graph_builder/rechit_gcn/strided_slice_2/stack"
  op: "Const"
  attr {
    key: "dtype"
    value {
      type: DT_INT32
    }
  }
  attr {
    key: "value"
    value {
      tensor {
        dtype: DT_INT32
        tensor_shape {
          dim {
            size: 4
          }
        }
        tensor_content: "\000\000\000\000\000\000\000\000\000\000\000\000\000\000\000\000"
      }
    }
  }
}
node {
  name: "deep_cluster_gn/graph_builder/rechit_gcn/strided_slice_2/stack_1"
  op: "Const"
  attr {
    key: "dtype"
    value {
      type: DT_INT32
    }
  }
  attr {
    key: "value"
    value {
      tensor {
        dtype: DT_INT32
        tensor_shape {
          dim {
            size: 4
          }
        }
        tensor_content: "\000\000\000\000\000\000\000\000\000\000\000\000\000\000\000\000"
      }
    }
  }
}
node {
  name: "deep_cluster_gn/graph_builder/rechit_gcn/strided_slice_2/stack_2"
  op: "Const"
  attr {
    key: "dtype"
    value {
      type: DT_INT32
    }
  }
  attr {
    key: "value"
    value {
      tensor {
        dtype: DT_INT32
        tensor_shape {
          dim {
            size: 4
          }
        }
        tensor_content: "\001\000\000\000\001\000\000\000\001\000\000\000\001\000\000\000"
      }
    }
  }
}
node {
  name: "deep_cluster_gn/graph_builder/rechit_gcn/strided_slice_2"
  op: "StridedSlice"
  input: "deep_cluster_gn/graph_builder/Cast"
  input: "deep_cluster_gn/graph_builder/rechit_gcn/strided_slice_2/stack"
  input: "deep_cluster_gn/graph_builder/rechit_gcn/strided_slice_2/stack_1"
  input: "deep_cluster_gn/graph_builder/rechit_gcn/strided_slice_2/stack_2"
  attr {
    key: "Index"
    value {
      type: DT_INT32
    }
  }
  attr {
    key: "T"
    value {
      type: DT_FLOAT
    }
  }
  attr {
    key: "begin_mask"
    value {
      i: 11
    }
  }
  attr {
    key: "ellipsis_mask"
    value {
      i: 0
    }
  }
  attr {
    key: "end_mask"
    value {
      i: 11
    }
  }
  attr {
    key: "new_axis_mask"
    value {
      i: 4
    }
  }
  attr {
    key: "shrink_axis_mask"
    value {
      i: 0
    }
  }
}
node {
  name: "deep_cluster_gn/graph_builder/rechit_gcn/matmul"
  op: "BatchMatMulV2"
  input: "deep_cluster_gn/graph_builder/rechit_gcn/strided_slice_1"
  input: "deep_cluster_gn/graph_builder/rechit_gcn/strided_slice_2"
  attr {
    key: "T"
    value {
      type: DT_FLOAT
    }
  }
  attr {
    key: "adj_x"
    value {
      b: false
    }
  }
  attr {
    key: "adj_y"
    value {
      b: false
    }
  }
}
node {
  name: "deep_cluster_gn/graph_builder/rechit_gcn/mul"
  op: "Mul"
  input: "deep_cluster_gn/graph_builder/rechit_gcn/distance/Exp"
  input: "deep_cluster_gn/graph_builder/rechit_gcn/matmul"
  attr {
    key: "T"
    value {
      type: DT_FLOAT
    }
  }
}
node {
  name: "deep_cluster_gn/graph_builder/rechit_gcn/GHC_rechits/Pow_2/y"
  op: "Const"
  attr {
    key: "dtype"
    value {
      type: DT_FLOAT
    }
  }
  attr {
    key: "value"
    value {
      tensor {
        dtype: DT_FLOAT
        tensor_shape {
        }
        float_val: 4.0
      }
    }
  }
}
node {
  name: "deep_cluster_gn/graph_builder/rechit_gcn/GHC_rechits/Pow_2"
  op: "Pow"
  input: "deep_cluster_gn/graph_builder/rechit_gcn/mul"
  input: "deep_cluster_gn/graph_builder/rechit_gcn/GHC_rechits/Pow_2/y"
  attr {
    key: "T"
    value {
      type: DT_FLOAT
    }
  }
}
node {
  name: "deep_cluster_gn/graph_builder/rechit_gcn/GHC_rechits/MatMul/ReadVariableOp/resource"
  op: "Const"
  attr {
    key: "dtype"
    value {
      type: DT_FLOAT
    }
  }
  attr {
    key: "value"
    value {
      tensor {
        dtype: DT_FLOAT
        tensor_shape {
          dim {
            size: 4
          }
          dim {
            size: 25
          }
        }
        tensor_content: "…"
      }
    }
  }
}
node {
  name: "deep_cluster_gn/graph_builder/rechit_gcn/GHC_rechits/MatMul/ReadVariableOp"
  op: "Identity"
  input: "deep_cluster_gn/graph_builder/rechit_gcn/GHC_rechits/MatMul/ReadVariableOp/resource"
  attr {
    key: "T"
    value {
      type: DT_FLOAT
    }
  }
}
node {
  name: "deep_cluster_gn/graph_builder/rechit_gcn/GHC_rechits/MatMul"
  op: "BatchMatMulV2"
  input: "input_3"
  input: "deep_cluster_gn/graph_builder/rechit_gcn/GHC_rechits/MatMul/ReadVariableOp"
  attr {
    key: "T"
    value {
      type: DT_FLOAT
    }
  }
  attr {
    key: "adj_x"
    value {
      b: false
    }
  }
  attr {
    key: "adj_y"
    value {
      b: false
    }
  }
}
node {
  name: "deep_cluster_gn/graph_builder/rechit_gcn/GHC_rechits/Sum/reduction_indices"
  op: "Const"
  attr {
    key: "dtype"
    value {
      type: DT_INT32
    }
  }
  attr {
    key: "value"
    value {
      tensor {
        dtype: DT_INT32
        tensor_shape {
        }
        int_val: -1
      }
    }
  }
}
node {
  name: "deep_cluster_gn/graph_builder/rechit_gcn/GHC_rechits/Sum"
  op: "Sum"
  input: "deep_cluster_gn/graph_builder/rechit_gcn/mul"
  input: "deep_cluster_gn/graph_builder/rechit_gcn/GHC_rechits/Sum/reduction_indices"
  attr {
    key: "T"
    value {
      type: DT_FLOAT
    }
  }
  attr {
    key: "Tidx"
    value {
      type: DT_INT32
    }
  }
  attr {
    key: "keep_dims"
    value {
      b: false
    }
  }
}
node {
  name: "deep_cluster_gn/graph_builder/rechit_gcn/GHC_rechits/add/y"
  op: "Const"
  attr {
    key: "dtype"
    value {
      type: DT_FLOAT
    }
  }
  attr {
    key: "value"
    value {
      tensor {
        dtype: DT_FLOAT
        tensor_shape {
        }
        float_val: 9.999999974752427e-07
      }
    }
  }
}
node {
  name: "deep_cluster_gn/graph_builder/rechit_gcn/GHC_rechits/add"
  op: "AddV2"
  input: "deep_cluster_gn/graph_builder/rechit_gcn/GHC_rechits/Sum"
  input: "deep_cluster_gn/graph_builder/rechit_gcn/GHC_rechits/add/y"
  attr {
    key: "T"
    value {
      type: DT_FLOAT
    }
  }
}
node {
  name: "deep_cluster_gn/graph_builder/rechit_gcn/GHC_rechits/Pow/y"
  op: "Const"
  attr {
    key: "dtype"
    value {
      type: DT_FLOAT
    }
  }
  attr {
    key: "value"
    value {
      tensor {
        dtype: DT_FLOAT
        tensor_shape {
        }
        float_val: -0.5
      }
    }
  }
}
node {
  name: "deep_cluster_gn/graph_builder/rechit_gcn/GHC_rechits/Pow"
  op: "Pow"
  input: "deep_cluster_gn/graph_builder/rechit_gcn/GHC_rechits/add"
  input: "deep_cluster_gn/graph_builder/rechit_gcn/GHC_rechits/Pow/y"
  attr {
    key: "T"
    value {
      type: DT_FLOAT
    }
  }
}
node {
  name: "deep_cluster_gn/graph_builder/rechit_gcn/GHC_rechits/ExpandDims/dim"
  op: "Const"
  attr {
    key: "dtype"
    value {
      type: DT_INT32
    }
  }
  attr {
    key: "value"
    value {
      tensor {
        dtype: DT_INT32
        tensor_shape {
        }
        int_val: -1
      }
    }
  }
}
node {
  name: "deep_cluster_gn/graph_builder/rechit_gcn/GHC_rechits/ExpandDims"
  op: "ExpandDims"
  input: "deep_cluster_gn/graph_builder/rechit_gcn/GHC_rechits/Pow"
  input: "deep_cluster_gn/graph_builder/rechit_gcn/GHC_rechits/ExpandDims/dim"
  attr {
    key: "T"
    value {
      type: DT_FLOAT
    }
  }
  attr {
    key: "Tdim"
    value {
      type: DT_INT32
    }
  }
}
node {
  name: "deep_cluster_gn/graph_builder/rechit_gcn/GHC_rechits/Pow_1/y"
  op: "Const"
  attr {
    key: "dtype"
    value {
      type: DT_FLOAT
    }
  }
  attr {
    key: "value"
    value {
      tensor {
        dtype: DT_FLOAT
        tensor_shape {
        }
        float_val: 4.0
      }
    }
  }
}
node {
  name: "deep_cluster_gn/graph_builder/rechit_gcn/GHC_rechits/Pow_1"
  op: "Pow"
  input: "deep_cluster_gn/graph_builder/rechit_gcn/GHC_rechits/ExpandDims"
  input: "deep_cluster_gn/graph_builder/rechit_gcn/GHC_rechits/Pow_1/y"
  attr {
    key: "T"
    value {
      type: DT_FLOAT
    }
  }
}
node {
  name: "deep_cluster_gn/graph_builder/rechit_gcn/GHC_rechits/mul"
  op: "Mul"
  input: "deep_cluster_gn/graph_builder/rechit_gcn/GHC_rechits/MatMul"
  input: "deep_cluster_gn/graph_builder/rechit_gcn/GHC_rechits/Pow_1"
  attr {
    key: "T"
    value {
      type: DT_FLOAT
    }
  }
}
node {
  name: "deep_cluster_gn/graph_builder/rechit_gcn/GHC_rechits/MatMul_1"
  op: "BatchMatMulV2"
  input: "deep_cluster_gn/graph_builder/rechit_gcn/GHC_rechits/Pow_2"
  input: "deep_cluster_gn/graph_builder/rechit_gcn/GHC_rechits/mul"
  attr {
    key: "T"
    value {
      type: DT_FLOAT
    }
  }
  attr {
    key: "adj_x"
    value {
      b: false
    }
  }
  attr {
    key: "adj_y"
    value {
      b: false
    }
  }
}
node {
  name: "deep_cluster_gn/graph_builder/rechit_gcn/GHC_rechits/mul_1"
  op: "Mul"
  input: "deep_cluster_gn/graph_builder/rechit_gcn/GHC_rechits/MatMul_1"
  input: "deep_cluster_gn/graph_builder/rechit_gcn/GHC_rechits/Pow_1"
  attr {
    key: "T"
    value {
      type: DT_FLOAT
    }
  }
}
node {
  name: "deep_cluster_gn/graph_builder/rechit_gcn/GHC_rechits/Elu"
  op: "Elu"
  input: "deep_cluster_gn/graph_builder/rechit_gcn/GHC_rechits/mul_1"
  attr {
    key: "T"
    value {
      type: DT_FLOAT
    }
  }
}
node {
  name: "deep_cluster_gn/graph_builder/rechit_gcn/GHC_rechits/mul_2"
  op: "Mul"
  input: "deep_cluster_gn/graph_builder/rechit_gcn/GHC_rechits/Sigmoid"
  input: "deep_cluster_gn/graph_builder/rechit_gcn/GHC_rechits/Elu"
  attr {
    key: "T"
    value {
      type: DT_FLOAT
    }
  }
}
node {
  name: "deep_cluster_gn/graph_builder/rechit_gcn/GHC_rechits/sub/x"
  op: "Const"
  attr {
    key: "dtype"
    value {
      type: DT_FLOAT
    }
  }
  attr {
    key: "value"
    value {
      tensor {
        dtype: DT_FLOAT
        tensor_shape {
        }
        float_val: 1.0
      }
    }
  }
}
node {
  name: "deep_cluster_gn/graph_builder/rechit_gcn/GHC_rechits/sub"
  op: "Sub"
  input: "deep_cluster_gn/graph_builder/rechit_gcn/GHC_rechits/sub/x"
  input: "deep_cluster_gn/graph_builder/rechit_gcn/GHC_rechits/Sigmoid"
  attr {
    key: "T"
    value {
      type: DT_FLOAT
    }
  }
}
node {
  name: "deep_cluster_gn/graph_builder/rechit_gcn/GHC_rechits/mul_3"
  op: "Mul"
  input: "deep_cluster_gn/graph_builder/rechit_gcn/GHC_rechits/sub"
  input: "deep_cluster_gn/graph_builder/rechit_gcn/GHC_rechits/MatMul"
  attr {
    key: "T"
    value {
      type: DT_FLOAT
    }
  }
}
node {
  name: "deep_cluster_gn/graph_builder/rechit_gcn/GHC_rechits/add_2"
  op: "AddV2"
  input: "deep_cluster_gn/graph_builder/rechit_gcn/GHC_rechits/mul_2"
  input: "deep_cluster_gn/graph_builder/rechit_gcn/GHC_rechits/mul_3"
  attr {
    key: "T"
    value {
      type: DT_FLOAT
    }
  }
}
node {
  name: "deep_cluster_gn/graph_builder/rechit_gcn/MatMul_1/ReadVariableOp/resource"
  op: "Const"
  attr {
    key: "dtype"
    value {
      type: DT_FLOAT
    }
  }
  attr {
    key: "value"
    value {
      tensor {
        dtype: DT_FLOAT
        tensor_shape {
          dim {
            size: 25
          }
          dim {
            size: 25
          }
        }
        tensor_content: "…"
      }
    }
  }
}
node {
  name: "deep_cluster_gn/graph_builder/rechit_gcn/MatMul_1/ReadVariableOp"
  op: "Identity"
  input: "deep_cluster_gn/graph_builder/rechit_gcn/MatMul_1/ReadVariableOp/resource"
  attr {
    key: "T"
    value {
      type: DT_FLOAT
    }
  }
}
node {
  name: "deep_cluster_gn/graph_builder/rechit_gcn/MatMul_1"
  op: "BatchMatMulV2"
  input: "deep_cluster_gn/graph_builder/rechit_gcn/GHC_rechits/add_2"
  input: "deep_cluster_gn/graph_builder/rechit_gcn/MatMul_1/ReadVariableOp"
  attr {
    key: "T"
    value {
      type: DT_FLOAT
    }
  }
  attr {
    key: "adj_x"
    value {
      b: false
    }
  }
  attr {
    key: "adj_y"
    value {
      b: false
    }
  }
}
node {
  name: "deep_cluster_gn/graph_builder/rechit_gcn/MatMul_2/ReadVariableOp/resource"
  op: "Const"
  attr {
    key: "dtype"
    value {
      type: DT_FLOAT
    }
  }
  attr {
    key: "value"
    value {
      tensor {
        dtype: DT_FLOAT
        tensor_shape {
          dim {
            size: 25
          }
          dim {
            size: 25
          }
        }
        tensor_content: "…"
      }
    }
  }
}
node {
  name: "deep_cluster_gn/graph_builder/rechit_gcn/MatMul_2/ReadVariableOp"
  op: "Identity"
  input: "deep_cluster_gn/graph_builder/rechit_gcn/MatMul_2/ReadVariableOp/resource"
  attr {
    key: "T"
    value {
      type: DT_FLOAT
    }
  }
}
node {
  name: "deep_cluster_gn/graph_builder/rechit_gcn/MatMul_2"
  op: "BatchMatMulV2"
  input: "deep_cluster_gn/graph_builder/rechit_gcn/GHC_rechits/add_2"
  input: "deep_cluster_gn/graph_builder/rechit_gcn/MatMul_2/ReadVariableOp"
  attr {
    key: "T"
    value {
      type: DT_FLOAT
    }
  }
  attr {
    key: "adj_x"
    value {
      b: false
    }
  }
  attr {
    key: "adj_y"
    value {
      b: false
    }
  }
}
node {
  name: "deep_cluster_gn/graph_builder/rechit_gcn/MatMul_4"
  op: "BatchMatMulV2"
  input: "deep_cluster_gn/graph_builder/rechit_gcn/MatMul_1"
  input: "deep_cluster_gn/graph_builder/rechit_gcn/MatMul_2"
  attr {
    key: "T"
    value {
      type: DT_FLOAT
    }
  }
  attr {
    key: "adj_x"
    value {
      b: false
    }
  }
  attr {
    key: "adj_y"
    value {
      b: true
    }
  }
}
node {
  name: "deep_cluster_gn/graph_builder/rechit_gcn/Shape"
  op: "Shape"
  input: "deep_cluster_gn/graph_builder/rechit_gcn/MatMul_2"
  attr {
    key: "T"
    value {
      type: DT_FLOAT
    }
  }
  attr {
    key: "out_type"
    value {
      type: DT_INT32
    }
  }
}
node {
  name: "deep_cluster_gn/graph_builder/rechit_gcn/strided_slice_4/stack"
  op: "Const"
  attr {
    key: "dtype"
    value {
      type: DT_INT32
    }
  }
  attr {
    key: "value"
    value {
      tensor {
        dtype: DT_INT32
        tensor_shape {
          dim {
            size: 1
          }
        }
        int_val: -1
      }
    }
  }
}
node {
  name: "deep_cluster_gn/graph_builder/rechit_gcn/strided_slice_4/stack_1"
  op: "Const"
  attr {
    key: "dtype"
    value {
      type: DT_INT32
    }
  }
  attr {
    key: "value"
    value {
      tensor {
        dtype: DT_INT32
        tensor_shape {
          dim {
            size: 1
          }
        }
        int_val: 0
      }
    }
  }
}
node {
  name: "deep_cluster_gn/graph_builder/rechit_gcn/strided_slice_4/stack_2"
  op: "Const"
  attr {
    key: "dtype"
    value {
      type: DT_INT32
    }
  }
  attr {
    key: "value"
    value {
      tensor {
        dtype: DT_INT32
        tensor_shape {
          dim {
            size: 1
          }
        }
        int_val: 1
      }
    }
  }
}
node {
  name: "deep_cluster_gn/graph_builder/rechit_gcn/strided_slice_4"
  op: "StridedSlice"
  input: "deep_cluster_gn/graph_builder/rechit_gcn/Shape"
  input: "deep_cluster_gn/graph_builder/rechit_gcn/strided_slice_4/stack"
  input: "deep_cluster_gn/graph_builder/rechit_gcn/strided_slice_4/stack_1"
  input: "deep_cluster_gn/graph_builder/rechit_gcn/strided_slice_4/stack_2"
  attr {
    key: "Index"
    value {
      type: DT_INT32
    }
  }
  attr {
    key: "T"
    value {
      type: DT_INT32
    }
  }
  attr {
    key: "begin_mask"
    value {
      i: 0
    }
  }
  attr {
    key: "ellipsis_mask"
    value {
      i: 0
    }
  }
  attr {
    key: "end_mask"
    value {
      i: 0
    }
  }
  attr {
    key: "new_axis_mask"
    value {
      i: 0
    }
  }
  attr {
    key: "shrink_axis_mask"
    value {
      i: 1
    }
  }
}
node {
  name: "deep_cluster_gn/graph_builder/rechit_gcn/Cast"
  op: "Cast"
  input: "deep_cluster_gn/graph_builder/rechit_gcn/strided_slice_4"
  attr {
    key: "DstT"
    value {
      type: DT_FLOAT
    }
  }
  attr {
    key: "SrcT"
    value {
      type: DT_INT32
    }
  }
  attr {
    key: "Truncate"
    value {
      b: false
    }
  }
}
node {
  name: "deep_cluster_gn/graph_builder/rechit_gcn/Sqrt"
  op: "Sqrt"
  input: "deep_cluster_gn/graph_builder/rechit_gcn/Cast"
  attr {
    key: "T"
    value {
      type: DT_FLOAT
    }
  }
}
node {
  name: "deep_cluster_gn/graph_builder/rechit_gcn/truediv"
  op: "RealDiv"
  input: "deep_cluster_gn/graph_builder/rechit_gcn/MatMul_4"
  input: "deep_cluster_gn/graph_builder/rechit_gcn/Sqrt"
  attr {
    key: "T"
    value {
      type: DT_FLOAT
    }
  }
}
node {
  name: "deep_cluster_gn/graph_builder/rechit_gcn/sub/x"
  op: "Const"
  attr {
    key: "dtype"
    value {
      type: DT_FLOAT
    }
  }
  attr {
    key: "value"
    value {
      tensor {
        dtype: DT_FLOAT
        tensor_shape {
        }
        float_val: 1.0
      }
    }
  }
}
node {
  name: "deep_cluster_gn/graph_builder/rechit_gcn/strided_slice_3/stack"
  op: "Const"
  attr {
    key: "dtype"
    value {
      type: DT_INT32
    }
  }
  attr {
    key: "value"
    value {
      tensor {
        dtype: DT_INT32
        tensor_shape {
          dim {
            size: 4
          }
        }
        tensor_content: "\000\000\000\000\000\000\000\000\000\000\000\000\000\000\000\000"
      }
    }
  }
}
node {
  name: "deep_cluster_gn/graph_builder/rechit_gcn/strided_slice_3/stack_1"
  op: "Const"
  attr {
    key: "dtype"
    value {
      type: DT_INT32
    }
  }
  attr {
    key: "value"
    value {
      tensor {
        dtype: DT_INT32
        tensor_shape {
          dim {
            size: 4
          }
        }
        tensor_content: "\000\000\000\000\000\000\000\000\000\000\000\000\000\000\000\000"
      }
    }
  }
}
node {
  name: "deep_cluster_gn/graph_builder/rechit_gcn/strided_slice_3/stack_2"
  op: "Const"
  attr {
    key: "dtype"
    value {
      type: DT_INT32
    }
  }
  attr {
    key: "value"
    value {
      tensor {
        dtype: DT_INT32
        tensor_shape {
          dim {
            size: 4
          }
        }
        tensor_content: "\001\000\000\000\001\000\000\000\001\000\000\000\001\000\000\000"
      }
    }
  }
}
node {
  name: "deep_cluster_gn/graph_builder/rechit_gcn/strided_slice_3"
  op: "StridedSlice"
  input: "deep_cluster_gn/graph_builder/Cast"
  input: "deep_cluster_gn/graph_builder/rechit_gcn/strided_slice_3/stack"
  input: "deep_cluster_gn/graph_builder/rechit_gcn/strided_slice_3/stack_1"
  input: "deep_cluster_gn/graph_builder/rechit_gcn/strided_slice_3/stack_2"
  attr {
    key: "Index"
    value {
      type: DT_INT32
    }
  }
  attr {
    key: "T"
    value {
      type: DT_FLOAT
    }
  }
  attr {
    key: "begin_mask"
    value {
      i: 11
    }
  }
  attr {
    key: "ellipsis_mask"
    value {
      i: 0
    }
  }
  attr {
    key: "end_mask"
    value {
      i: 11
    }
  }
  attr {
    key: "new_axis_mask"
    value {
      i: 4
    }
  }
  attr {
    key: "shrink_axis_mask"
    value {
      i: 0
    }
  }
}
node {
  name: "deep_cluster_gn/graph_builder/rechit_gcn/sub"
  op: "Sub"
  input: "deep_cluster_gn/graph_builder/rechit_gcn/sub/x"
  input: "deep_cluster_gn/graph_builder/rechit_gcn/strided_slice_3"
  attr {
    key: "T"
    value {
      type: DT_FLOAT
    }
  }
}
node {
  name: "deep_cluster_gn/graph_builder/rechit_gcn/mul_1/y"
  op: "Const"
  attr {
    key: "dtype"
    value {
      type: DT_FLOAT
    }
  }
  attr {
    key: "value"
    value {
      tensor {
        dtype: DT_FLOAT
        tensor_shape {
        }
        float_val: -1000000000.0
      }
    }
  }
}
node {
  name: "deep_cluster_gn/graph_builder/rechit_gcn/mul_1"
  op: "Mul"
  input: "deep_cluster_gn/graph_builder/rechit_gcn/sub"
  input: "deep_cluster_gn/graph_builder/rechit_gcn/mul_1/y"
  attr {
    key: "T"
    value {
      type: DT_FLOAT
    }
  }
}
node {
  name: "deep_cluster_gn/graph_builder/rechit_gcn/add"
  op: "AddV2"
  input: "deep_cluster_gn/graph_builder/rechit_gcn/truediv"
  input: "deep_cluster_gn/graph_builder/rechit_gcn/mul_1"
  attr {
    key: "T"
    value {
      type: DT_FLOAT
    }
  }
}
node {
  name: "deep_cluster_gn/graph_builder/rechit_gcn/Softmax"
  op: "Softmax"
  input: "deep_cluster_gn/graph_builder/rechit_gcn/add"
  attr {
    key: "T"
    value {
      type: DT_FLOAT
    }
  }
}
node {
  name: "deep_cluster_gn/graph_builder/rechit_gcn/MatMul_3/ReadVariableOp/resource"
  op: "Const"
  attr {
    key: "dtype"
    value {
      type: DT_FLOAT
    }
  }
  attr {
    key: "value"
    value {
      tensor {
        dtype: DT_FLOAT
        tensor_shape {
          dim {
            size: 25
          }
          dim {
            size: 25
          }
        }
        tensor_content: "…"
      }
    }
  }
}
node {
  name: "deep_cluster_gn/graph_builder/rechit_gcn/MatMul_3/ReadVariableOp"
  op: "Identity"
  input: "deep_cluster_gn/graph_builder/rechit_gcn/MatMul_3/ReadVariableOp/resource"
  attr {
    key: "T"
    value {
      type: DT_FLOAT
    }
  }
}
node {
  name: "deep_cluster_gn/graph_builder/rechit_gcn/MatMul_3"
  op: "BatchMatMulV2"
  input: "deep_cluster_gn/graph_builder/rechit_gcn/GHC_rechits/add_2"
  input: "deep_cluster_gn/graph_builder/rechit_gcn/MatMul_3/ReadVariableOp"
  attr {
    key: "T"
    value {
      type: DT_FLOAT
    }
  }
  attr {
    key: "adj_x"
    value {
      b: false
    }
  }
  attr {
    key: "adj_y"
    value {
      b: false
    }
  }
}
node {
  name: "deep_cluster_gn/graph_builder/rechit_gcn/MatMul_5"
  op: "BatchMatMulV2"
  input: "deep_cluster_gn/graph_builder/rechit_gcn/Softmax"
  input: "deep_cluster_gn/graph_builder/rechit_gcn/MatMul_3"
  attr {
    key: "T"
    value {
      type: DT_FLOAT
    }
  }
  attr {
    key: "adj_x"
    value {
      b: false
    }
  }
  attr {
    key: "adj_y"
    value {
      b: false
    }
  }
}
node {
  name: "deep_cluster_gn/graph_builder/rechit_gcn/dropout_1/Identity"
  op: "Identity"
  input: "deep_cluster_gn/graph_builder/rechit_gcn/MatMul_5"
  attr {
    key: "T"
    value {
      type: DT_FLOAT
    }
  }
}
node {
  name: "deep_cluster_gn/graph_builder/rechit_gcn/sa_norm_rechits/Shape"
  op: "Shape"
  input: "deep_cluster_gn/graph_builder/rechit_gcn/dropout_1/Identity"
  attr {
    key: "T"
    value {
      type: DT_FLOAT
    }
  }
  attr {
    key: "out_type"
    value {
      type: DT_INT32
    }
  }
}
node {
  name: "deep_cluster_gn/graph_builder/rechit_gcn/sa_norm_rechits/strided_slice/stack"
  op: "Const"
  attr {
    key: "dtype"
    value {
      type: DT_INT32
    }
  }
  attr {
    key: "value"
    value {
      tensor {
        dtype: DT_INT32
        tensor_shape {
          dim {
            size: 1
          }
        }
        int_val: 0
      }
    }
  }
}
node {
  name: "deep_cluster_gn/graph_builder/rechit_gcn/sa_norm_rechits/strided_slice/stack_1"
  op: "Const"
  attr {
    key: "dtype"
    value {
      type: DT_INT32
    }
  }
  attr {
    key: "value"
    value {
      tensor {
        dtype: DT_INT32
        tensor_shape {
          dim {
            size: 1
          }
        }
        int_val: 1
      }
    }
  }
}
node {
  name: "deep_cluster_gn/graph_builder/rechit_gcn/sa_norm_rechits/strided_slice/stack_2"
  op: "Const"
  attr {
    key: "dtype"
    value {
      type: DT_INT32
    }
  }
  attr {
    key: "value"
    value {
      tensor {
        dtype: DT_INT32
        tensor_shape {
          dim {
            size: 1
          }
        }
        int_val: 1
      }
    }
  }
}
node {
  name: "deep_cluster_gn/graph_builder/rechit_gcn/sa_norm_rechits/strided_slice"
  op: "StridedSlice"
  input: "deep_cluster_gn/graph_builder/rechit_gcn/sa_norm_rechits/Shape"
  input: "deep_cluster_gn/graph_builder/rechit_gcn/sa_norm_rechits/strided_slice/stack"
  input: "deep_cluster_gn/graph_builder/rechit_gcn/sa_norm_rechits/strided_slice/stack_1"
  input: "deep_cluster_gn/graph_builder/rechit_gcn/sa_norm_rechits/strided_slice/stack_2"
  attr {
    key: "Index"
    value {
      type: DT_INT32
    }
  }
  attr {
    key: "T"
    value {
      type: DT_INT32
    }
  }
  attr {
    key: "begin_mask"
    value {
      i: 0
    }
  }
  attr {
    key: "ellipsis_mask"
    value {
      i: 0
    }
  }
  attr {
    key: "end_mask"
    value {
      i: 0
    }
  }
  attr {
    key: "new_axis_mask"
    value {
      i: 0
    }
  }
  attr {
    key: "shrink_axis_mask"
    value {
      i: 1
    }
  }
}
node {
  name: "deep_cluster_gn/graph_builder/rechit_gcn/sa_norm_rechits/mul"
  op: "Mul"
  input: "deep_cluster_gn/graph_builder/rechit_gcn/sa_norm_rechits/mul/x"
  input: "deep_cluster_gn/graph_builder/rechit_gcn/sa_norm_rechits/strided_slice"
  attr {
    key: "T"
    value {
      type: DT_INT32
    }
  }
}
node {
  name: "deep_cluster_gn/graph_builder/rechit_gcn/sa_norm_rechits/strided_slice_1/stack"
  op: "Const"
  attr {
    key: "dtype"
    value {
      type: DT_INT32
    }
  }
  attr {
    key: "value"
    value {
      tensor {
        dtype: DT_INT32
        tensor_shape {
          dim {
            size: 1
          }
        }
        int_val: 1
      }
    }
  }
}
node {
  name: "deep_cluster_gn/graph_builder/rechit_gcn/sa_norm_rechits/strided_slice_1/stack_1"
  op: "Const"
  attr {
    key: "dtype"
    value {
      type: DT_INT32
    }
  }
  attr {
    key: "value"
    value {
      tensor {
        dtype: DT_INT32
        tensor_shape {
          dim {
            size: 1
          }
        }
        int_val: 2
      }
    }
  }
}
node {
  name: "deep_cluster_gn/graph_builder/rechit_gcn/sa_norm_rechits/strided_slice_1/stack_2"
  op: "Const"
  attr {
    key: "dtype"
    value {
      type: DT_INT32
    }
  }
  attr {
    key: "value"
    value {
      tensor {
        dtype: DT_INT32
        tensor_shape {
          dim {
            size: 1
          }
        }
        int_val: 1
      }
    }
  }
}
node {
  name: "deep_cluster_gn/graph_builder/rechit_gcn/sa_norm_rechits/strided_slice_1"
  op: "StridedSlice"
  input: "deep_cluster_gn/graph_builder/rechit_gcn/sa_norm_rechits/Shape"
  input: "deep_cluster_gn/graph_builder/rechit_gcn/sa_norm_rechits/strided_slice_1/stack"
  input: "deep_cluster_gn/graph_builder/rechit_gcn/sa_norm_rechits/strided_slice_1/stack_1"
  input: "deep_cluster_gn/graph_builder/rechit_gcn/sa_norm_rechits/strided_slice_1/stack_2"
  attr {
    key: "Index"
    value {
      type: DT_INT32
    }
  }
  attr {
    key: "T"
    value {
      type: DT_INT32
    }
  }
  attr {
    key: "begin_mask"
    value {
      i: 0
    }
  }
  attr {
    key: "ellipsis_mask"
    value {
      i: 0
    }
  }
  attr {
    key: "end_mask"
    value {
      i: 0
    }
  }
  attr {
    key: "new_axis_mask"
    value {
      i: 0
    }
  }
  attr {
    key: "shrink_axis_mask"
    value {
      i: 1
    }
  }
}
node {
  name: "deep_cluster_gn/graph_builder/rechit_gcn/sa_norm_rechits/mul_1"
  op: "Mul"
  input: "deep_cluster_gn/graph_builder/rechit_gcn/sa_norm_rechits/mul"
  input: "deep_cluster_gn/graph_builder/rechit_gcn/sa_norm_rechits/strided_slice_1"
  attr {
    key: "T"
    value {
      type: DT_INT32
    }
  }
}
node {
  name: "deep_cluster_gn/graph_builder/rechit_gcn/sa_norm_rechits/strided_slice_2/stack"
  op: "Const"
  attr {
    key: "dtype"
    value {
      type: DT_INT32
    }
  }
  attr {
    key: "value"
    value {
      tensor {
        dtype: DT_INT32
        tensor_shape {
          dim {
            size: 1
          }
        }
        int_val: 2
      }
    }
  }
}
node {
  name: "deep_cluster_gn/graph_builder/rechit_gcn/sa_norm_rechits/strided_slice_2/stack_1"
  op: "Const"
  attr {
    key: "dtype"
    value {
      type: DT_INT32
    }
  }
  attr {
    key: "value"
    value {
      tensor {
        dtype: DT_INT32
        tensor_shape {
          dim {
            size: 1
          }
        }
        int_val: 3
      }
    }
  }
}
node {
  name: "deep_cluster_gn/graph_builder/rechit_gcn/sa_norm_rechits/strided_slice_2/stack_2"
  op: "Const"
  attr {
    key: "dtype"
    value {
      type: DT_INT32
    }
  }
  attr {
    key: "value"
    value {
      tensor {
        dtype: DT_INT32
        tensor_shape {
          dim {
            size: 1
          }
        }
        int_val: 1
      }
    }
  }
}
node {
  name: "deep_cluster_gn/graph_builder/rechit_gcn/sa_norm_rechits/strided_slice_2"
  op: "StridedSlice"
  input: "deep_cluster_gn/graph_builder/rechit_gcn/sa_norm_rechits/Shape"
  input: "deep_cluster_gn/graph_builder/rechit_gcn/sa_norm_rechits/strided_slice_2/stack"
  input: "deep_cluster_gn/graph_builder/rechit_gcn/sa_norm_rechits/strided_slice_2/stack_1"
  input: "deep_cluster_gn/graph_builder/rechit_gcn/sa_norm_rechits/strided_slice_2/stack_2"
  attr {
    key: "Index"
    value {
      type: DT_INT32
    }
  }
  attr {
    key: "T"
    value {
      type: DT_INT32
    }
  }
  attr {
    key: "begin_mask"
    value {
      i: 0
    }
  }
  attr {
    key: "ellipsis_mask"
    value {
      i: 0
    }
  }
  attr {
    key: "end_mask"
    value {
      i: 0
    }
  }
  attr {
    key: "new_axis_mask"
    value {
      i: 0
    }
  }
  attr {
    key: "shrink_axis_mask"
    value {
      i: 1
    }
  }
}
node {
  name: "deep_cluster_gn/graph_builder/rechit_gcn/sa_norm_rechits/mul_2"
  op: "Mul"
  input: "deep_cluster_gn/graph_builder/rechit_gcn/sa_norm_rechits/mul_1"
  input: "deep_cluster_gn/graph_builder/rechit_gcn/sa_norm_rechits/strided_slice_2"
  attr {
    key: "T"
    value {
      type: DT_INT32
    }
  }
}
node {
  name: "deep_cluster_gn/graph_builder/rechit_gcn/sa_norm_rechits/mul_3/x"
  op: "Const"
  attr {
    key: "dtype"
    value {
      type: DT_INT32
    }
  }
  attr {
    key: "value"
    value {
      tensor {
        dtype: DT_INT32
        tensor_shape {
        }
        int_val: 1
      }
    }
  }
}
node {
  name: "deep_cluster_gn/graph_builder/rechit_gcn/sa_norm_rechits/strided_slice_3/stack"
  op: "Const"
  attr {
    key: "dtype"
    value {
      type: DT_INT32
    }
  }
  attr {
    key: "value"
    value {
      tensor {
        dtype: DT_INT32
        tensor_shape {
          dim {
            size: 1
          }
        }
        int_val: 3
      }
    }
  }
}
node {
  name: "deep_cluster_gn/graph_builder/rechit_gcn/sa_norm_rechits/strided_slice_3/stack_1"
  op: "Const"
  attr {
    key: "dtype"
    value {
      type: DT_INT32
    }
  }
  attr {
    key: "value"
    value {
      tensor {
        dtype: DT_INT32
        tensor_shape {
          dim {
            size: 1
          }
        }
        int_val: 4
      }
    }
  }
}
node {
  name: "deep_cluster_gn/graph_builder/rechit_gcn/sa_norm_rechits/strided_slice_3/stack_2"
  op: "Const"
  attr {
    key: "dtype"
    value {
      type: DT_INT32
    }
  }
  attr {
    key: "value"
    value {
      tensor {
        dtype: DT_INT32
        tensor_shape {
          dim {
            size: 1
          }
        }
        int_val: 1
      }
    }
  }
}
node {
  name: "deep_cluster_gn/graph_builder/rechit_gcn/sa_norm_rechits/strided_slice_3"
  op: "StridedSlice"
  input: "deep_cluster_gn/graph_builder/rechit_gcn/sa_norm_rechits/Shape"
  input: "deep_cluster_gn/graph_builder/rechit_gcn/sa_norm_rechits/strided_slice_3/stack"
  input: "deep_cluster_gn/graph_builder/rechit_gcn/sa_norm_rechits/strided_slice_3/stack_1"
  input: "deep_cluster_gn/graph_builder/rechit_gcn/sa_norm_rechits/strided_slice_3/stack_2"
  attr {
    key: "Index"
    value {
      type: DT_INT32
    }
  }
  attr {
    key: "T"
    value {
      type: DT_INT32
    }
  }
  attr {
    key: "begin_mask"
    value {
      i: 0
    }
  }
  attr {
    key: "ellipsis_mask"
    value {
      i: 0
    }
  }
  attr {
    key: "end_mask"
    value {
      i: 0
    }
  }
  attr {
    key: "new_axis_mask"
    value {
      i: 0
    }
  }
  attr {
    key: "shrink_axis_mask"
    value {
      i: 1
    }
  }
}
node {
  name: "deep_cluster_gn/graph_builder/rechit_gcn/sa_norm_rechits/mul_3"
  op: "Mul"
  input: "deep_cluster_gn/graph_builder/rechit_gcn/sa_norm_rechits/mul_3/x"
  input: "deep_cluster_gn/graph_builder/rechit_gcn/sa_norm_rechits/strided_slice_3"
  attr {
    key: "T"
    value {
      type: DT_INT32
    }
  }
}
node {
  name: "deep_cluster_gn/graph_builder/rechit_gcn/sa_norm_rechits/Reshape/shape/3"
  op: "Const"
  attr {
    key: "dtype"
    value {
      type: DT_INT32
    }
  }
  attr {
    key: "value"
    value {
      tensor {
        dtype: DT_INT32
        tensor_shape {
        }
        int_val: 1
      }
    }
  }
}
node {
  name: "deep_cluster_gn/graph_builder/rechit_gcn/sa_norm_rechits/Reshape/shape"
  op: "Pack"
  input: "deep_cluster_gn/graph_builder/rechit_gcn/sa_norm_rechits/Reshape/shape/0"
  input: "deep_cluster_gn/graph_builder/rechit_gcn/sa_norm_rechits/mul_2"
  input: "deep_cluster_gn/graph_builder/rechit_gcn/sa_norm_rechits/mul_3"
  input: "deep_cluster_gn/graph_builder/rechit_gcn/sa_norm_rechits/Reshape/shape/3"
  attr {
    key: "N"
    value {
      i: 4
    }
  }
  attr {
    key: "T"
    value {
      type: DT_INT32
    }
  }
  attr {
    key: "axis"
    value {
      i: 0
    }
  }
}
node {
  name: "deep_cluster_gn/graph_builder/rechit_gcn/sa_norm_rechits/Reshape"
  op: "Reshape"
  input: "deep_cluster_gn/graph_builder/rechit_gcn/dropout_1/Identity"
  input: "deep_cluster_gn/graph_builder/rechit_gcn/sa_norm_rechits/Reshape/shape"
  attr {
    key: "T"
    value {
      type: DT_FLOAT
    }
  }
  attr {
    key: "Tshape"
    value {
      type: DT_INT32
    }
  }
}
node {
  name: "deep_cluster_gn/graph_builder/rechit_gcn/sa_norm_rechits/Fill/dims"
  op: "Pack"
  input: "deep_cluster_gn/graph_builder/rechit_gcn/sa_norm_rechits/mul_2"
  attr {
    key: "N"
    value {
      i: 1
    }
  }
  attr {
    key: "T"
    value {
      type: DT_INT32
    }
  }
  attr {
    key: "axis"
    value {
      i: 0
    }
  }
}
node {
  name: "deep_cluster_gn/graph_builder/rechit_gcn/sa_norm_rechits/Const"
  op: "Const"
  attr {
    key: "dtype"
    value {
      type: DT_FLOAT
    }
  }
  attr {
    key: "value"
    value {
      tensor {
        dtype: DT_FLOAT
        tensor_shape {
        }
        float_val: 1.0
      }
    }
  }
}
node {
  name: "deep_cluster_gn/graph_builder/rechit_gcn/sa_norm_rechits/Fill"
  op: "Fill"
  input: "deep_cluster_gn/graph_builder/rechit_gcn/sa_norm_rechits/Fill/dims"
  input: "deep_cluster_gn/graph_builder/rechit_gcn/sa_norm_rechits/Const"
  attr {
    key: "T"
    value {
      type: DT_FLOAT
    }
  }
  attr {
    key: "index_type"
    value {
      type: DT_INT32
    }
  }
}
node {
  name: "deep_cluster_gn/graph_builder/rechit_gcn/sa_norm_rechits/Fill_1/dims"
  op: "Pack"
  input: "deep_cluster_gn/graph_builder/rechit_gcn/sa_norm_rechits/mul_2"
  attr {
    key: "N"
    value {
      i: 1
    }
  }
  attr {
    key: "T"
    value {
      type: DT_INT32
    }
  }
  attr {
    key: "axis"
    value {
      i: 0
    }
  }
}
node {
  name: "deep_cluster_gn/graph_builder/rechit_gcn/sa_norm_rechits/Const_1"
  op: "Const"
  attr {
    key: "dtype"
    value {
      type: DT_FLOAT
    }
  }
  attr {
    key: "value"
    value {
      tensor {
        dtype: DT_FLOAT
        tensor_shape {
        }
        float_val: 0.0
      }
    }
  }
}
node {
  name: "deep_cluster_gn/graph_builder/rechit_gcn/sa_norm_rechits/Fill_1"
  op: "Fill"
  input: "deep_cluster_gn/graph_builder/rechit_gcn/sa_norm_rechits/Fill_1/dims"
  input: "deep_cluster_gn/graph_builder/rechit_gcn/sa_norm_rechits/Const_1"
  attr {
    key: "T"
    value {
      type: DT_FLOAT
    }
  }
  attr {
    key: "index_type"
    value {
      type: DT_INT32
    }
  }
}
node {
  name: "deep_cluster_gn/graph_builder/rechit_gcn/sa_norm_rechits/Const_2"
  op: "Const"
  attr {
    key: "dtype"
    value {
      type: DT_FLOAT
    }
  }
  attr {
    key: "value"
    value {
      tensor {
        dtype: DT_FLOAT
        tensor_shape {
          dim {
          }
        }
      }
    }
  }
}
node {
  name: "deep_cluster_gn/graph_builder/rechit_gcn/sa_norm_rechits/Const_3"
  op: "Const"
  attr {
    key: "dtype"
    value {
      type: DT_FLOAT
    }
  }
  attr {
    key: "value"
    value {
      tensor {
        dtype: DT_FLOAT
        tensor_shape {
          dim {
          }
        }
      }
    }
  }
}
node {
  name: "deep_cluster_gn/graph_builder/rechit_gcn/sa_norm_rechits/FusedBatchNormV3"
  op: "FusedBatchNormV3"
  input: "deep_cluster_gn/graph_builder/rechit_gcn/sa_norm_rechits/Reshape"
  input: "deep_cluster_gn/graph_builder/rechit_gcn/sa_norm_rechits/Fill"
  input: "deep_cluster_gn/graph_builder/rechit_gcn/sa_norm_rechits/Fill_1"
  input: "deep_cluster_gn/graph_builder/rechit_gcn/sa_norm_rechits/Const_2"
  input: "deep_cluster_gn/graph_builder/rechit_gcn/sa_norm_rechits/Const_3"
  attr {
    key: "T"
    value {
      type: DT_FLOAT
    }
  }
  attr {
    key: "U"
    value {
      type: DT_FLOAT
    }
  }
  attr {
    key: "data_format"
    value {
      s: "NCHW"
    }
  }
  attr {
    key: "epsilon"
    value {
      f: 0.0010000000474974513
    }
  }
  attr {
    key: "exponential_avg_factor"
    value {
      f: 1.0
    }
  }
  attr {
    key: "is_training"
    value {
      b: true
    }
  }
}
node {
  name: "deep_cluster_gn/graph_builder/rechit_gcn/sa_norm_rechits/Reshape_1"
  op: "Reshape"
  input: "deep_cluster_gn/graph_builder/rechit_gcn/sa_norm_rechits/FusedBatchNormV3"
  input: "deep_cluster_gn/graph_builder/rechit_gcn/sa_norm_rechits/Shape"
  attr {
    key: "T"
    value {
      type: DT_FLOAT
    }
  }
  attr {
    key: "Tshape"
    value {
      type: DT_INT32
    }
  }
}
node {
  name: "deep_cluster_gn/graph_builder/rechit_gcn/sa_norm_rechits/mul_4/ReadVariableOp/resource"
  op: "Const"
  attr {
    key: "dtype"
    value {
      type: DT_FLOAT
    }
  }
  attr {
    key: "value"
    value {
      tensor {
        dtype: DT_FLOAT
        tensor_shape {
          dim {
            size: 25
          }
        }
        tensor_content: "…"
      }
    }
  }
}
node {
  name: "deep_cluster_gn/graph_builder/rechit_gcn/sa_norm_rechits/mul_4/ReadVariableOp"
  op: "Identity"
  input: "deep_cluster_gn/graph_builder/rechit_gcn/sa_norm_rechits/mul_4/ReadVariableOp/resource"
  attr {
    key: "T"
    value {
      type: DT_FLOAT
    }
  }
}
node {
  name: "deep_cluster_gn/graph_builder/rechit_gcn/sa_norm_rechits/mul_4"
  op: "Mul"
  input: "deep_cluster_gn/graph_builder/rechit_gcn/sa_norm_rechits/Reshape_1"
  input: "deep_cluster_gn/graph_builder/rechit_gcn/sa_norm_rechits/mul_4/ReadVariableOp"
  attr {
    key: "T"
    value {
      type: DT_FLOAT
    }
  }
}
node {
  name: "deep_cluster_gn/graph_builder/rechit_gcn/sa_norm_rechits/add/ReadVariableOp/resource"
  op: "Const"
  attr {
    key: "dtype"
    value {
      type: DT_FLOAT
    }
  }
  attr {
    key: "value"
    value {
      tensor {
        dtype: DT_FLOAT
        tensor_shape {
          dim {
            size: 25
          }
        }
        tensor_content: "…"
      }
    }
  }
}
node {
  name: "deep_cluster_gn/graph_builder/rechit_gcn/sa_norm_rechits/add/ReadVariableOp"
  op: "Identity"
  input: "deep_cluster_gn/graph_builder/rechit_gcn/sa_norm_rechits/add/ReadVariableOp/resource"
  attr {
    key: "T"
    value {
      type: DT_FLOAT
    }
  }
}
node {
  name: "deep_cluster_gn/graph_builder/rechit_gcn/sa_norm_rechits/add"
  op: "AddV2"
  input: "deep_cluster_gn/graph_builder/rechit_gcn/sa_norm_rechits/mul_4"
  input: "deep_cluster_gn/graph_builder/rechit_gcn/sa_norm_rechits/add/ReadVariableOp"
  attr {
    key: "T"
    value {
      type: DT_FLOAT
    }
  }
}
node {
  name: "deep_cluster_gn/graph_builder/rechit_gcn/strided_slice_5/stack"
  op: "Const"
  attr {
    key: "dtype"
    value {
      type: DT_INT32
    }
  }
  attr {
    key: "value"
    value {
      tensor {
        dtype: DT_INT32
        tensor_shape {
          dim {
            size: 4
          }
        }
        tensor_content: "\000\000\000\000\000\000\000\000\000\000\000\000\000\000\000\000"
      }
    }
  }
}
node {
  name: "deep_cluster_gn/graph_builder/rechit_gcn/strided_slice_5/stack_1"
  op: "Const"
  attr {
    key: "dtype"
    value {
      type: DT_INT32
    }
  }
  attr {
    key: "value"
    value {
      tensor {
        dtype: DT_INT32
        tensor_shape {
          dim {
            size: 4
          }
        }
        tensor_content: "\000\000\000\000\000\000\000\000\000\000\000\000\000\000\000\000"
      }
    }
  }
}
node {
  name: "deep_cluster_gn/graph_builder/rechit_gcn/strided_slice_5/stack_2"
  op: "Const"
  attr {
    key: "dtype"
    value {
      type: DT_INT32
    }
  }
  attr {
    key: "value"
    value {
      tensor {
        dtype: DT_INT32
        tensor_shape {
          dim {
            size: 4
          }
        }
        tensor_content: "\001\000\000\000\001\000\000\000\001\000\000\000\001\000\000\000"
      }
    }
  }
}
node {
  name: "deep_cluster_gn/graph_builder/rechit_gcn/strided_slice_5"
  op: "StridedSlice"
  input: "deep_cluster_gn/graph_builder/Cast"
  input: "deep_cluster_gn/graph_builder/rechit_gcn/strided_slice_5/stack"
  input: "deep_cluster_gn/graph_builder/rechit_gcn/strided_slice_5/stack_1"
  input: "deep_cluster_gn/graph_builder/rechit_gcn/strided_slice_5/stack_2"
  attr {
    key: "Index"
    value {
      type: DT_INT32
    }
  }
  attr {
    key: "T"
    value {
      type: DT_FLOAT
    }
  }
  attr {
    key: "begin_mask"
    value {
      i: 7
    }
  }
  attr {
    key: "ellipsis_mask"
    value {
      i: 0
    }
  }
  attr {
    key: "end_mask"
    value {
      i: 7
    }
  }
  attr {
    key: "new_axis_mask"
    value {
      i: 8
    }
  }
  attr {
    key: "shrink_axis_mask"
    value {
      i: 0
    }
  }
}
node {
  name: "deep_cluster_gn/graph_builder/rechit_gcn/mul_2"
  op: "Mul"
  input: "deep_cluster_gn/graph_builder/rechit_gcn/sa_norm_rechits/add"
  input: "deep_cluster_gn/graph_builder/rechit_gcn/strided_slice_5"
  attr {
    key: "T"
    value {
      type: DT_FLOAT
    }
  }
}
node {
  name: "deep_cluster_gn/graph_builder/rechit_gcn/dense_rechits/dense_rechits_0/conv1d/ExpandDims/dim"
  op: "Const"
  attr {
    key: "dtype"
    value {
      type: DT_INT32
    }
  }
  attr {
    key: "value"
    value {
      tensor {
        dtype: DT_INT32
        tensor_shape {
        }
        int_val: -3
      }
    }
  }
}
node {
  name: "deep_cluster_gn/graph_builder/rechit_gcn/dense_rechits/dense_rechits_0/conv1d/ExpandDims"
  op: "ExpandDims"
  input: "deep_cluster_gn/graph_builder/rechit_gcn/mul_2"
  input: "deep_cluster_gn/graph_builder/rechit_gcn/dense_rechits/dense_rechits_0/conv1d/ExpandDims/dim"
  attr {
    key: "T"
    value {
      type: DT_FLOAT
    }
  }
  attr {
    key: "Tdim"
    value {
      type: DT_INT32
    }
  }
}
node {
  name: "deep_cluster_gn/graph_builder/rechit_gcn/dense_rechits/dense_rechits_0/conv1d/Reshape/shape"
  op: "Const"
  attr {
    key: "dtype"
    value {
      type: DT_INT32
    }
  }
  attr {
    key: "value"
    value {
      tensor {
        dtype: DT_INT32
        tensor_shape {
          dim {
            size: 4
          }
        }
        tensor_content: "\377\377\377\377\001\000\000\000(\000\000\000\031\000\000\000"
      }
    }
  }
}
node {
  name: "deep_cluster_gn/graph_builder/rechit_gcn/dense_rechits/dense_rechits_0/conv1d/Reshape"
  op: "Reshape"
  input: "deep_cluster_gn/graph_builder/rechit_gcn/dense_rechits/dense_rechits_0/conv1d/ExpandDims"
  input: "deep_cluster_gn/graph_builder/rechit_gcn/dense_rechits/dense_rechits_0/conv1d/Reshape/shape"
  attr {
    key: "T"
    value {
      type: DT_FLOAT
    }
  }
  attr {
    key: "Tshape"
    value {
      type: DT_INT32
    }
  }
}
node {
  name: "deep_cluster_gn/graph_builder/rechit_gcn/dense_rechits/dense_rechits_0/conv1d/ExpandDims_1/ReadVariableOp/resource"
  op: "Const"
  attr {
    key: "dtype"
    value {
      type: DT_FLOAT
    }
  }
  attr {
    key: "value"
    value {
      tensor {
        dtype: DT_FLOAT
        tensor_shape {
          dim {
            size: 1
          }
          dim {
            size: 25
          }
          dim {
            size: 25
          }
        }
        tensor_content: "…"
      }
    }
  }
}
node {
  name: "deep_cluster_gn/graph_builder/rechit_gcn/dense_rechits/dense_rechits_0/conv1d/ExpandDims_1/ReadVariableOp"
  op: "Identity"
  input: "deep_cluster_gn/graph_builder/rechit_gcn/dense_rechits/dense_rechits_0/conv1d/ExpandDims_1/ReadVariableOp/resource"
  attr {
    key: "T"
    value {
      type: DT_FLOAT
    }
  }
}
node {
  name: "deep_cluster_gn/graph_builder/rechit_gcn/dense_rechits/dense_rechits_0/conv1d/ExpandDims_1/dim"
  op: "Const"
  attr {
    key: "dtype"
    value {
      type: DT_INT32
    }
  }
  attr {
    key: "value"
    value {
      tensor {
        dtype: DT_INT32
        tensor_shape {
        }
        int_val: 0
      }
    }
  }
}
node {
  name: "deep_cluster_gn/graph_builder/rechit_gcn/dense_rechits/dense_rechits_0/conv1d/ExpandDims_1"
  op: "ExpandDims"
  input: "deep_cluster_gn/graph_builder/rechit_gcn/dense_rechits/dense_rechits_0/conv1d/ExpandDims_1/ReadVariableOp"
  input: "deep_cluster_gn/graph_builder/rechit_gcn/dense_rechits/dense_rechits_0/conv1d/ExpandDims_1/dim"
  attr {
    key: "T"
    value {
      type: DT_FLOAT
    }
  }
  attr {
    key: "Tdim"
    value {
      type: DT_INT32
    }
  }
}
node {
  name: "deep_cluster_gn/graph_builder/rechit_gcn/dense_rechits/dense_rechits_0/conv1d/Conv2D"
  op: "Conv2D"
  input: "deep_cluster_gn/graph_builder/rechit_gcn/dense_rechits/dense_rechits_0/conv1d/Reshape"
  input: "deep_cluster_gn/graph_builder/rechit_gcn/dense_rechits/dense_rechits_0/conv1d/ExpandDims_1"
  attr {
    key: "T"
    value {
      type: DT_FLOAT
    }
  }
  attr {
    key: "data_format"
    value {
      s: "NHWC"
    }
  }
  attr {
    key: "dilations"
    value {
      list {
        i: 1
        i: 1
        i: 1
        i: 1
      }
    }
  }
  attr {
    key: "explicit_paddings"
    value {
      list {
      }
    }
  }
  attr {
    key: "padding"
    value {
      s: "VALID"
    }
  }
  attr {
    key: "strides"
    value {
      list {
        i: 1
        i: 1
        i: 1
        i: 1
      }
    }
  }
  attr {
    key: "use_cudnn_on_gpu"
    value {
      b: true
    }
  }
}
node {
  name: "deep_cluster_gn/graph_builder/rechit_gcn/dense_rechits/dense_rechits_0/conv1d/Shape"
  op: "Shape"
  input: "deep_cluster_gn/graph_builder/rechit_gcn/dense_rechits/dense_rechits_0/conv1d/ExpandDims"
  attr {
    key: "T"
    value {
      type: DT_FLOAT
    }
  }
  attr {
    key: "out_type"
    value {
      type: DT_INT32
    }
  }
}
node {
  name: "deep_cluster_gn/graph_builder/rechit_gcn/dense_rechits/dense_rechits_0/conv1d/strided_slice/stack"
  op: "Const"
  attr {
    key: "dtype"
    value {
      type: DT_INT32
    }
  }
  attr {
    key: "value"
    value {
      tensor {
        dtype: DT_INT32
        tensor_shape {
          dim {
            size: 1
          }
        }
        int_val: 0
      }
    }
  }
}
node {
  name: "deep_cluster_gn/graph_builder/rechit_gcn/dense_rechits/dense_rechits_0/conv1d/strided_slice/stack_1"
  op: "Const"
  attr {
    key: "dtype"
    value {
      type: DT_INT32
    }
  }
  attr {
    key: "value"
    value {
      tensor {
        dtype: DT_INT32
        tensor_shape {
          dim {
            size: 1
          }
        }
        int_val: -3
      }
    }
  }
}
node {
  name: "deep_cluster_gn/graph_builder/rechit_gcn/dense_rechits/dense_rechits_0/conv1d/strided_slice/stack_2"
  op: "Const"
  attr {
    key: "dtype"
    value {
      type: DT_INT32
    }
  }
  attr {
    key: "value"
    value {
      tensor {
        dtype: DT_INT32
        tensor_shape {
          dim {
            size: 1
          }
        }
        int_val: 1
      }
    }
  }
}
node {
  name: "deep_cluster_gn/graph_builder/rechit_gcn/dense_rechits/dense_rechits_0/conv1d/strided_slice"
  op: "StridedSlice"
  input: "deep_cluster_gn/graph_builder/rechit_gcn/dense_rechits/dense_rechits_0/conv1d/Shape"
  input: "deep_cluster_gn/graph_builder/rechit_gcn/dense_rechits/dense_rechits_0/conv1d/strided_slice/stack"
  input: "deep_cluster_gn/graph_builder/rechit_gcn/dense_rechits/dense_rechits_0/conv1d/strided_slice/stack_1"
  input: "deep_cluster_gn/graph_builder/rechit_gcn/dense_rechits/dense_rechits_0/conv1d/strided_slice/stack_2"
  attr {
    key: "Index"
    value {
      type: DT_INT32
    }
  }
  attr {
    key: "T"
    value {
      type: DT_INT32
    }
  }
  attr {
    key: "begin_mask"
    value {
      i: 1
    }
  }
  attr {
    key: "ellipsis_mask"
    value {
      i: 0
    }
  }
  attr {
    key: "end_mask"
    value {
      i: 0
    }
  }
  attr {
    key: "new_axis_mask"
    value {
      i: 0
    }
  }
  attr {
    key: "shrink_axis_mask"
    value {
      i: 0
    }
  }
}
node {
  name: "deep_cluster_gn/graph_builder/rechit_gcn/dense_rechits/dense_rechits_0/conv1d/concat/values_1"
  op: "Const"
  attr {
    key: "dtype"
    value {
      type: DT_INT32
    }
  }
  attr {
    key: "value"
    value {
      tensor {
        dtype: DT_INT32
        tensor_shape {
          dim {
            size: 3
          }
        }
        tensor_content: "\001\000\000\000(\000\000\000\031\000\000\000"
      }
    }
  }
}
node {
  name: "deep_cluster_gn/graph_builder/rechit_gcn/dense_rechits/dense_rechits_0/conv1d/concat/axis"
  op: "Const"
  attr {
    key: "dtype"
    value {
      type: DT_INT32
    }
  }
  attr {
    key: "value"
    value {
      tensor {
        dtype: DT_INT32
        tensor_shape {
        }
        int_val: -1
      }
    }
  }
}
node {
  name: "deep_cluster_gn/graph_builder/rechit_gcn/dense_rechits/dense_rechits_0/conv1d/concat"
  op: "ConcatV2"
  input: "deep_cluster_gn/graph_builder/rechit_gcn/dense_rechits/dense_rechits_0/conv1d/strided_slice"
  input: "deep_cluster_gn/graph_builder/rechit_gcn/dense_rechits/dense_rechits_0/conv1d/concat/values_1"
  input: "deep_cluster_gn/graph_builder/rechit_gcn/dense_rechits/dense_rechits_0/conv1d/concat/axis"
  attr {
    key: "N"
    value {
      i: 2
    }
  }
  attr {
    key: "T"
    value {
      type: DT_INT32
    }
  }
  attr {
    key: "Tidx"
    value {
      type: DT_INT32
    }
  }
}
node {
  name: "deep_cluster_gn/graph_builder/rechit_gcn/dense_rechits/dense_rechits_0/conv1d/Reshape_1"
  op: "Reshape"
  input: "deep_cluster_gn/graph_builder/rechit_gcn/dense_rechits/dense_rechits_0/conv1d/Conv2D"
  input: "deep_cluster_gn/graph_builder/rechit_gcn/dense_rechits/dense_rechits_0/conv1d/concat"
  attr {
    key: "T"
    value {
      type: DT_FLOAT
    }
  }
  attr {
    key: "Tshape"
    value {
      type: DT_INT32
    }
  }
}
node {
  name: "deep_cluster_gn/graph_builder/rechit_gcn/dense_rechits/dense_rechits_0/conv1d/Squeeze"
  op: "Squeeze"
  input: "deep_cluster_gn/graph_builder/rechit_gcn/dense_rechits/dense_rechits_0/conv1d/Reshape_1"
  attr {
    key: "T"
    value {
      type: DT_FLOAT
    }
  }
  attr {
    key: "squeeze_dims"
    value {
      list {
        i: -3
      }
    }
  }
}
node {
  name: "deep_cluster_gn/graph_builder/rechit_gcn/dense_rechits/dense_rechits_0/squeeze_batch_dims/Reshape/shape"
  op: "Const"
  attr {
    key: "dtype"
    value {
      type: DT_INT32
    }
  }
  attr {
    key: "value"
    value {
      tensor {
        dtype: DT_INT32
        tensor_shape {
          dim {
            size: 3
          }
        }
        tensor_content: "\377\377\377\377(\000\000\000\031\000\000\000"
      }
    }
  }
}
node {
  name: "deep_cluster_gn/graph_builder/rechit_gcn/dense_rechits/dense_rechits_0/squeeze_batch_dims/Reshape"
  op: "Reshape"
  input: "deep_cluster_gn/graph_builder/rechit_gcn/dense_rechits/dense_rechits_0/conv1d/Squeeze"
  input: "deep_cluster_gn/graph_builder/rechit_gcn/dense_rechits/dense_rechits_0/squeeze_batch_dims/Reshape/shape"
  attr {
    key: "T"
    value {
      type: DT_FLOAT
    }
  }
  attr {
    key: "Tshape"
    value {
      type: DT_INT32
    }
  }
}
node {
  name: "deep_cluster_gn/graph_builder/rechit_gcn/dense_rechits/dense_rechits_0/squeeze_batch_dims/BiasAdd/ReadVariableOp/resource"
  op: "Const"
  attr {
    key: "dtype"
    value {
      type: DT_FLOAT
    }
  }
  attr {
    key: "value"
    value {
      tensor {
        dtype: DT_FLOAT
        tensor_shape {
          dim {
            size: 25
          }
        }
        tensor_content: "…"
      }
    }
  }
}
node {
  name: "deep_cluster_gn/graph_builder/rechit_gcn/dense_rechits/dense_rechits_0/squeeze_batch_dims/BiasAdd/ReadVariableOp"
  op: "Identity"
  input: "deep_cluster_gn/graph_builder/rechit_gcn/dense_rechits/dense_rechits_0/squeeze_batch_dims/BiasAdd/ReadVariableOp/resource"
  attr {
    key: "T"
    value {
      type: DT_FLOAT
    }
  }
}
node {
  name: "deep_cluster_gn/graph_builder/rechit_gcn/dense_rechits/dense_rechits_0/squeeze_batch_dims/BiasAdd"
  op: "BiasAdd"
  input: "deep_cluster_gn/graph_builder/rechit_gcn/dense_rechits/dense_rechits_0/squeeze_batch_dims/Reshape"
  input: "deep_cluster_gn/graph_builder/rechit_gcn/dense_rechits/dense_rechits_0/squeeze_batch_dims/BiasAdd/ReadVariableOp"
  attr {
    key: "T"
    value {
      type: DT_FLOAT
    }
  }
  attr {
    key: "data_format"
    value {
      s: "NHWC"
    }
  }
}
node {
  name: "deep_cluster_gn/graph_builder/rechit_gcn/dense_rechits/dense_rechits_0/squeeze_batch_dims/Shape"
  op: "Shape"
  input: "deep_cluster_gn/graph_builder/rechit_gcn/dense_rechits/dense_rechits_0/conv1d/Squeeze"
  attr {
    key: "T"
    value {
      type: DT_FLOAT
    }
  }
  attr {
    key: "out_type"
    value {
      type: DT_INT32
    }
  }
}
node {
  name: "deep_cluster_gn/graph_builder/rechit_gcn/dense_rechits/dense_rechits_0/squeeze_batch_dims/strided_slice/stack"
  op: "Const"
  attr {
    key: "dtype"
    value {
      type: DT_INT32
    }
  }
  attr {
    key: "value"
    value {
      tensor {
        dtype: DT_INT32
        tensor_shape {
          dim {
            size: 1
          }
        }
        int_val: 0
      }
    }
  }
}
node {
  name: "deep_cluster_gn/graph_builder/rechit_gcn/dense_rechits/dense_rechits_0/squeeze_batch_dims/strided_slice/stack_1"
  op: "Const"
  attr {
    key: "dtype"
    value {
      type: DT_INT32
    }
  }
  attr {
    key: "value"
    value {
      tensor {
        dtype: DT_INT32
        tensor_shape {
          dim {
            size: 1
          }
        }
        int_val: -2
      }
    }
  }
}
node {
  name: "deep_cluster_gn/graph_builder/rechit_gcn/dense_rechits/dense_rechits_0/squeeze_batch_dims/strided_slice/stack_2"
  op: "Const"
  attr {
    key: "dtype"
    value {
      type: DT_INT32
    }
  }
  attr {
    key: "value"
    value {
      tensor {
        dtype: DT_INT32
        tensor_shape {
          dim {
            size: 1
          }
        }
        int_val: 1
      }
    }
  }
}
node {
  name: "deep_cluster_gn/graph_builder/rechit_gcn/dense_rechits/dense_rechits_0/squeeze_batch_dims/strided_slice"
  op: "StridedSlice"
  input: "deep_cluster_gn/graph_builder/rechit_gcn/dense_rechits/dense_rechits_0/squeeze_batch_dims/Shape"
  input: "deep_cluster_gn/graph_builder/rechit_gcn/dense_rechits/dense_rechits_0/squeeze_batch_dims/strided_slice/stack"
  input: "deep_cluster_gn/graph_builder/rechit_gcn/dense_rechits/dense_rechits_0/squeeze_batch_dims/strided_slice/stack_1"
  input: "deep_cluster_gn/graph_builder/rechit_gcn/dense_rechits/dense_rechits_0/squeeze_batch_dims/strided_slice/stack_2"
  attr {
    key: "Index"
    value {
      type: DT_INT32
    }
  }
  attr {
    key: "T"
    value {
      type: DT_INT32
    }
  }
  attr {
    key: "begin_mask"
    value {
      i: 1
    }
  }
  attr {
    key: "ellipsis_mask"
    value {
      i: 0
    }
  }
  attr {
    key: "end_mask"
    value {
      i: 0
    }
  }
  attr {
    key: "new_axis_mask"
    value {
      i: 0
    }
  }
  attr {
    key: "shrink_axis_mask"
    value {
      i: 0
    }
  }
}
node {
  name: "deep_cluster_gn/graph_builder/rechit_gcn/dense_rechits/dense_rechits_0/squeeze_batch_dims/concat/values_1"
  op: "Const"
  attr {
    key: "dtype"
    value {
      type: DT_INT32
    }
  }
  attr {
    key: "value"
    value {
      tensor {
        dtype: DT_INT32
        tensor_shape {
          dim {
            size: 2
          }
        }
        tensor_content: "(\000\000\000\031\000\000\000"
      }
    }
  }
}
node {
  name: "deep_cluster_gn/graph_builder/rechit_gcn/dense_rechits/dense_rechits_0/squeeze_batch_dims/concat/axis"
  op: "Const"
  attr {
    key: "dtype"
    value {
      type: DT_INT32
    }
  }
  attr {
    key: "value"
    value {
      tensor {
        dtype: DT_INT32
        tensor_shape {
        }
        int_val: -1
      }
    }
  }
}
node {
  name: "deep_cluster_gn/graph_builder/rechit_gcn/dense_rechits/dense_rechits_0/squeeze_batch_dims/concat"
  op: "ConcatV2"
  input: "deep_cluster_gn/graph_builder/rechit_gcn/dense_rechits/dense_rechits_0/squeeze_batch_dims/strided_slice"
  input: "deep_cluster_gn/graph_builder/rechit_gcn/dense_rechits/dense_rechits_0/squeeze_batch_dims/concat/values_1"
  input: "deep_cluster_gn/graph_builder/rechit_gcn/dense_rechits/dense_rechits_0/squeeze_batch_dims/concat/axis"
  attr {
    key: "N"
    value {
      i: 2
    }
  }
  attr {
    key: "T"
    value {
      type: DT_INT32
    }
  }
  attr {
    key: "Tidx"
    value {
      type: DT_INT32
    }
  }
}
node {
  name: "deep_cluster_gn/graph_builder/rechit_gcn/dense_rechits/dense_rechits_0/squeeze_batch_dims/Reshape_1"
  op: "Reshape"
  input: "deep_cluster_gn/graph_builder/rechit_gcn/dense_rechits/dense_rechits_0/squeeze_batch_dims/BiasAdd"
  input: "deep_cluster_gn/graph_builder/rechit_gcn/dense_rechits/dense_rechits_0/squeeze_batch_dims/concat"
  attr {
    key: "T"
    value {
      type: DT_FLOAT
    }
  }
  attr {
    key: "Tshape"
    value {
      type: DT_INT32
    }
  }
}
node {
  name: "deep_cluster_gn/graph_builder/rechit_gcn/dense_rechits/dense_rechits_0/Elu"
  op: "Elu"
  input: "deep_cluster_gn/graph_builder/rechit_gcn/dense_rechits/dense_rechits_0/squeeze_batch_dims/Reshape_1"
  attr {
    key: "T"
    value {
      type: DT_FLOAT
    }
  }
}
node {
  name: "deep_cluster_gn/graph_builder/rechit_gcn/dense_rechits/dropout/Identity"
  op: "Identity"
  input: "deep_cluster_gn/graph_builder/rechit_gcn/dense_rechits/dense_rechits_0/Elu"
  attr {
    key: "T"
    value {
      type: DT_FLOAT
    }
  }
}
node {
  name: "deep_cluster_gn/graph_builder/rechit_gcn/dense_rechits/dense_rechits_1/conv1d/ExpandDims/dim"
  op: "Const"
  attr {
    key: "dtype"
    value {
      type: DT_INT32
    }
  }
  attr {
    key: "value"
    value {
      tensor {
        dtype: DT_INT32
        tensor_shape {
        }
        int_val: -3
      }
    }
  }
}
node {
  name: "deep_cluster_gn/graph_builder/rechit_gcn/dense_rechits/dense_rechits_1/conv1d/ExpandDims"
  op: "ExpandDims"
  input: "deep_cluster_gn/graph_builder/rechit_gcn/dense_rechits/dropout/Identity"
  input: "deep_cluster_gn/graph_builder/rechit_gcn/dense_rechits/dense_rechits_1/conv1d/ExpandDims/dim"
  attr {
    key: "T"
    value {
      type: DT_FLOAT
    }
  }
  attr {
    key: "Tdim"
    value {
      type: DT_INT32
    }
  }
}
node {
  name: "deep_cluster_gn/graph_builder/rechit_gcn/dense_rechits/dense_rechits_1/conv1d/Reshape/shape"
  op: "Const"
  attr {
    key: "dtype"
    value {
      type: DT_INT32
    }
  }
  attr {
    key: "value"
    value {
      tensor {
        dtype: DT_INT32
        tensor_shape {
          dim {
            size: 4
          }
        }
        tensor_content: "\377\377\377\377\001\000\000\000(\000\000\000\031\000\000\000"
      }
    }
  }
}
node {
  name: "deep_cluster_gn/graph_builder/rechit_gcn/dense_rechits/dense_rechits_1/conv1d/Reshape"
  op: "Reshape"
  input: "deep_cluster_gn/graph_builder/rechit_gcn/dense_rechits/dense_rechits_1/conv1d/ExpandDims"
  input: "deep_cluster_gn/graph_builder/rechit_gcn/dense_rechits/dense_rechits_1/conv1d/Reshape/shape"
  attr {
    key: "T"
    value {
      type: DT_FLOAT
    }
  }
  attr {
    key: "Tshape"
    value {
      type: DT_INT32
    }
  }
}
node {
  name: "deep_cluster_gn/graph_builder/rechit_gcn/dense_rechits/dense_rechits_1/conv1d/ExpandDims_1/ReadVariableOp/resource"
  op: "Const"
  attr {
    key: "dtype"
    value {
      type: DT_FLOAT
    }
  }
  attr {
    key: "value"
    value {
      tensor {
        dtype: DT_FLOAT
        tensor_shape {
          dim {
            size: 1
          }
          dim {
            size: 25
          }
          dim {
            size: 25
          }
        }
        tensor_content: "…"
      }
    }
  }
}
node {
  name: "deep_cluster_gn/graph_builder/rechit_gcn/dense_rechits/dense_rechits_1/conv1d/ExpandDims_1/ReadVariableOp"
  op: "Identity"
  input: "deep_cluster_gn/graph_builder/rechit_gcn/dense_rechits/dense_rechits_1/conv1d/ExpandDims_1/ReadVariableOp/resource"
  attr {
    key: "T"
    value {
      type: DT_FLOAT
    }
  }
}
node {
  name: "deep_cluster_gn/graph_builder/rechit_gcn/dense_rechits/dense_rechits_1/conv1d/ExpandDims_1/dim"
  op: "Const"
  attr {
    key: "dtype"
    value {
      type: DT_INT32
    }
  }
  attr {
    key: "value"
    value {
      tensor {
        dtype: DT_INT32
        tensor_shape {
        }
        int_val: 0
      }
    }
  }
}
node {
  name: "deep_cluster_gn/graph_builder/rechit_gcn/dense_rechits/dense_rechits_1/conv1d/ExpandDims_1"
  op: "ExpandDims"
  input: "deep_cluster_gn/graph_builder/rechit_gcn/dense_rechits/dense_rechits_1/conv1d/ExpandDims_1/ReadVariableOp"
  input: "deep_cluster_gn/graph_builder/rechit_gcn/dense_rechits/dense_rechits_1/conv1d/ExpandDims_1/dim"
  attr {
    key: "T"
    value {
      type: DT_FLOAT
    }
  }
  attr {
    key: "Tdim"
    value {
      type: DT_INT32
    }
  }
}
node {
  name: "deep_cluster_gn/graph_builder/rechit_gcn/dense_rechits/dense_rechits_1/conv1d/Conv2D"
  op: "Conv2D"
  input: "deep_cluster_gn/graph_builder/rechit_gcn/dense_rechits/dense_rechits_1/conv1d/Reshape"
  input: "deep_cluster_gn/graph_builder/rechit_gcn/dense_rechits/dense_rechits_1/conv1d/ExpandDims_1"
  attr {
    key: "T"
    value {
      type: DT_FLOAT
    }
  }
  attr {
    key: "data_format"
    value {
      s: "NHWC"
    }
  }
  attr {
    key: "dilations"
    value {
      list {
        i: 1
        i: 1
        i: 1
        i: 1
      }
    }
  }
  attr {
    key: "explicit_paddings"
    value {
      list {
      }
    }
  }
  attr {
    key: "padding"
    value {
      s: "VALID"
    }
  }
  attr {
    key: "strides"
    value {
      list {
        i: 1
        i: 1
        i: 1
        i: 1
      }
    }
  }
  attr {
    key: "use_cudnn_on_gpu"
    value {
      b: true
    }
  }
}
node {
  name: "deep_cluster_gn/graph_builder/rechit_gcn/dense_rechits/dense_rechits_1/conv1d/Shape"
  op: "Shape"
  input: "deep_cluster_gn/graph_builder/rechit_gcn/dense_rechits/dense_rechits_1/conv1d/ExpandDims"
  attr {
    key: "T"
    value {
      type: DT_FLOAT
    }
  }
  attr {
    key: "out_type"
    value {
      type: DT_INT32
    }
  }
}
node {
  name: "deep_cluster_gn/graph_builder/rechit_gcn/dense_rechits/dense_rechits_1/conv1d/strided_slice/stack"
  op: "Const"
  attr {
    key: "dtype"
    value {
      type: DT_INT32
    }
  }
  attr {
    key: "value"
    value {
      tensor {
        dtype: DT_INT32
        tensor_shape {
          dim {
            size: 1
          }
        }
        int_val: 0
      }
    }
  }
}
node {
  name: "deep_cluster_gn/graph_builder/rechit_gcn/dense_rechits/dense_rechits_1/conv1d/strided_slice/stack_1"
  op: "Const"
  attr {
    key: "dtype"
    value {
      type: DT_INT32
    }
  }
  attr {
    key: "value"
    value {
      tensor {
        dtype: DT_INT32
        tensor_shape {
          dim {
            size: 1
          }
        }
        int_val: -3
      }
    }
  }
}
node {
  name: "deep_cluster_gn/graph_builder/rechit_gcn/dense_rechits/dense_rechits_1/conv1d/strided_slice/stack_2"
  op: "Const"
  attr {
    key: "dtype"
    value {
      type: DT_INT32
    }
  }
  attr {
    key: "value"
    value {
      tensor {
        dtype: DT_INT32
        tensor_shape {
          dim {
            size: 1
          }
        }
        int_val: 1
      }
    }
  }
}
node {
  name: "deep_cluster_gn/graph_builder/rechit_gcn/dense_rechits/dense_rechits_1/conv1d/strided_slice"
  op: "StridedSlice"
  input: "deep_cluster_gn/graph_builder/rechit_gcn/dense_rechits/dense_rechits_1/conv1d/Shape"
  input: "deep_cluster_gn/graph_builder/rechit_gcn/dense_rechits/dense_rechits_1/conv1d/strided_slice/stack"
  input: "deep_cluster_gn/graph_builder/rechit_gcn/dense_rechits/dense_rechits_1/conv1d/strided_slice/stack_1"
  input: "deep_cluster_gn/graph_builder/rechit_gcn/dense_rechits/dense_rechits_1/conv1d/strided_slice/stack_2"
  attr {
    key: "Index"
    value {
      type: DT_INT32
    }
  }
  attr {
    key: "T"
    value {
      type: DT_INT32
    }
  }
  attr {
    key: "begin_mask"
    value {
      i: 1
    }
  }
  attr {
    key: "ellipsis_mask"
    value {
      i: 0
    }
  }
  attr {
    key: "end_mask"
    value {
      i: 0
    }
  }
  attr {
    key: "new_axis_mask"
    value {
      i: 0
    }
  }
  attr {
    key: "shrink_axis_mask"
    value {
      i: 0
    }
  }
}
node {
  name: "deep_cluster_gn/graph_builder/rechit_gcn/dense_rechits/dense_rechits_1/conv1d/concat/values_1"
  op: "Const"
  attr {
    key: "dtype"
    value {
      type: DT_INT32
    }
  }
  attr {
    key: "value"
    value {
      tensor {
        dtype: DT_INT32
        tensor_shape {
          dim {
            size: 3
          }
        }
        tensor_content: "\001\000\000\000(\000\000\000\031\000\000\000"
      }
    }
  }
}
node {
  name: "deep_cluster_gn/graph_builder/rechit_gcn/dense_rechits/dense_rechits_1/conv1d/concat/axis"
  op: "Const"
  attr {
    key: "dtype"
    value {
      type: DT_INT32
    }
  }
  attr {
    key: "value"
    value {
      tensor {
        dtype: DT_INT32
        tensor_shape {
        }
        int_val: -1
      }
    }
  }
}
node {
  name: "deep_cluster_gn/graph_builder/rechit_gcn/dense_rechits/dense_rechits_1/conv1d/concat"
  op: "ConcatV2"
  input: "deep_cluster_gn/graph_builder/rechit_gcn/dense_rechits/dense_rechits_1/conv1d/strided_slice"
  input: "deep_cluster_gn/graph_builder/rechit_gcn/dense_rechits/dense_rechits_1/conv1d/concat/values_1"
  input: "deep_cluster_gn/graph_builder/rechit_gcn/dense_rechits/dense_rechits_1/conv1d/concat/axis"
  attr {
    key: "N"
    value {
      i: 2
    }
  }
  attr {
    key: "T"
    value {
      type: DT_INT32
    }
  }
  attr {
    key: "Tidx"
    value {
      type: DT_INT32
    }
  }
}
node {
  name: "deep_cluster_gn/graph_builder/rechit_gcn/dense_rechits/dense_rechits_1/conv1d/Reshape_1"
  op: "Reshape"
  input: "deep_cluster_gn/graph_builder/rechit_gcn/dense_rechits/dense_rechits_1/conv1d/Conv2D"
  input: "deep_cluster_gn/graph_builder/rechit_gcn/dense_rechits/dense_rechits_1/conv1d/concat"
  attr {
    key: "T"
    value {
      type: DT_FLOAT
    }
  }
  attr {
    key: "Tshape"
    value {
      type: DT_INT32
    }
  }
}
node {
  name: "deep_cluster_gn/graph_builder/rechit_gcn/dense_rechits/dense_rechits_1/conv1d/Squeeze"
  op: "Squeeze"
  input: "deep_cluster_gn/graph_builder/rechit_gcn/dense_rechits/dense_rechits_1/conv1d/Reshape_1"
  attr {
    key: "T"
    value {
      type: DT_FLOAT
    }
  }
  attr {
    key: "squeeze_dims"
    value {
      list {
        i: -3
      }
    }
  }
}
node {
  name: "deep_cluster_gn/graph_builder/rechit_gcn/dense_rechits/dense_rechits_1/squeeze_batch_dims/Reshape/shape"
  op: "Const"
  attr {
    key: "dtype"
    value {
      type: DT_INT32
    }
  }
  attr {
    key: "value"
    value {
      tensor {
        dtype: DT_INT32
        tensor_shape {
          dim {
            size: 3
          }
        }
        tensor_content: "\377\377\377\377(\000\000\000\031\000\000\000"
      }
    }
  }
}
node {
  name: "deep_cluster_gn/graph_builder/rechit_gcn/dense_rechits/dense_rechits_1/squeeze_batch_dims/Reshape"
  op: "Reshape"
  input: "deep_cluster_gn/graph_builder/rechit_gcn/dense_rechits/dense_rechits_1/conv1d/Squeeze"
  input: "deep_cluster_gn/graph_builder/rechit_gcn/dense_rechits/dense_rechits_1/squeeze_batch_dims/Reshape/shape"
  attr {
    key: "T"
    value {
      type: DT_FLOAT
    }
  }
  attr {
    key: "Tshape"
    value {
      type: DT_INT32
    }
  }
}
node {
  name: "deep_cluster_gn/graph_builder/rechit_gcn/dense_rechits/dense_rechits_1/squeeze_batch_dims/BiasAdd/ReadVariableOp/resource"
  op: "Const"
  attr {
    key: "dtype"
    value {
      type: DT_FLOAT
    }
  }
  attr {
    key: "value"
    value {
      tensor {
        dtype: DT_FLOAT
        tensor_shape {
          dim {
            size: 25
          }
        }
        tensor_content: "…"
      }
    }
  }
}
node {
  name: "deep_cluster_gn/graph_builder/rechit_gcn/dense_rechits/dense_rechits_1/squeeze_batch_dims/BiasAdd/ReadVariableOp"
  op: "Identity"
  input: "deep_cluster_gn/graph_builder/rechit_gcn/dense_rechits/dense_rechits_1/squeeze_batch_dims/BiasAdd/ReadVariableOp/resource"
  attr {
    key: "T"
    value {
      type: DT_FLOAT
    }
  }
}
node {
  name: "deep_cluster_gn/graph_builder/rechit_gcn/dense_rechits/dense_rechits_1/squeeze_batch_dims/BiasAdd"
  op: "BiasAdd"
  input: "deep_cluster_gn/graph_builder/rechit_gcn/dense_rechits/dense_rechits_1/squeeze_batch_dims/Reshape"
  input: "deep_cluster_gn/graph_builder/rechit_gcn/dense_rechits/dense_rechits_1/squeeze_batch_dims/BiasAdd/ReadVariableOp"
  attr {
    key: "T"
    value {
      type: DT_FLOAT
    }
  }
  attr {
    key: "data_format"
    value {
      s: "NHWC"
    }
  }
}
node {
  name: "deep_cluster_gn/graph_builder/rechit_gcn/dense_rechits/dense_rechits_1/squeeze_batch_dims/Shape"
  op: "Shape"
  input: "deep_cluster_gn/graph_builder/rechit_gcn/dense_rechits/dense_rechits_1/conv1d/Squeeze"
  attr {
    key: "T"
    value {
      type: DT_FLOAT
    }
  }
  attr {
    key: "out_type"
    value {
      type: DT_INT32
    }
  }
}
node {
  name: "deep_cluster_gn/graph_builder/rechit_gcn/dense_rechits/dense_rechits_1/squeeze_batch_dims/strided_slice/stack"
  op: "Const"
  attr {
    key: "dtype"
    value {
      type: DT_INT32
    }
  }
  attr {
    key: "value"
    value {
      tensor {
        dtype: DT_INT32
        tensor_shape {
          dim {
            size: 1
          }
        }
        int_val: 0
      }
    }
  }
}
node {
  name: "deep_cluster_gn/graph_builder/rechit_gcn/dense_rechits/dense_rechits_1/squeeze_batch_dims/strided_slice/stack_1"
  op: "Const"
  attr {
    key: "dtype"
    value {
      type: DT_INT32
    }
  }
  attr {
    key: "value"
    value {
      tensor {
        dtype: DT_INT32
        tensor_shape {
          dim {
            size: 1
          }
        }
        int_val: -2
      }
    }
  }
}
node {
  name: "deep_cluster_gn/graph_builder/rechit_gcn/dense_rechits/dense_rechits_1/squeeze_batch_dims/strided_slice/stack_2"
  op: "Const"
  attr {
    key: "dtype"
    value {
      type: DT_INT32
    }
  }
  attr {
    key: "value"
    value {
      tensor {
        dtype: DT_INT32
        tensor_shape {
          dim {
            size: 1
          }
        }
        int_val: 1
      }
    }
  }
}
node {
  name: "deep_cluster_gn/graph_builder/rechit_gcn/dense_rechits/dense_rechits_1/squeeze_batch_dims/strided_slice"
  op: "StridedSlice"
  input: "deep_cluster_gn/graph_builder/rechit_gcn/dense_rechits/dense_rechits_1/squeeze_batch_dims/Shape"
  input: "deep_cluster_gn/graph_builder/rechit_gcn/dense_rechits/dense_rechits_1/squeeze_batch_dims/strided_slice/stack"
  input: "deep_cluster_gn/graph_builder/rechit_gcn/dense_rechits/dense_rechits_1/squeeze_batch_dims/strided_slice/stack_1"
  input: "deep_cluster_gn/graph_builder/rechit_gcn/dense_rechits/dense_rechits_1/squeeze_batch_dims/strided_slice/stack_2"
  attr {
    key: "Index"
    value {
      type: DT_INT32
    }
  }
  attr {
    key: "T"
    value {
      type: DT_INT32
    }
  }
  attr {
    key: "begin_mask"
    value {
      i: 1
    }
  }
  attr {
    key: "ellipsis_mask"
    value {
      i: 0
    }
  }
  attr {
    key: "end_mask"
    value {
      i: 0
    }
  }
  attr {
    key: "new_axis_mask"
    value {
      i: 0
    }
  }
  attr {
    key: "shrink_axis_mask"
    value {
      i: 0
    }
  }
}
node {
  name: "deep_cluster_gn/graph_builder/rechit_gcn/dense_rechits/dense_rechits_1/squeeze_batch_dims/concat/values_1"
  op: "Const"
  attr {
    key: "dtype"
    value {
      type: DT_INT32
    }
  }
  attr {
    key: "value"
    value {
      tensor {
        dtype: DT_INT32
        tensor_shape {
          dim {
            size: 2
          }
        }
        tensor_content: "(\000\000\000\031\000\000\000"
      }
    }
  }
}
node {
  name: "deep_cluster_gn/graph_builder/rechit_gcn/dense_rechits/dense_rechits_1/squeeze_batch_dims/concat/axis"
  op: "Const"
  attr {
    key: "dtype"
    value {
      type: DT_INT32
    }
  }
  attr {
    key: "value"
    value {
      tensor {
        dtype: DT_INT32
        tensor_shape {
        }
        int_val: -1
      }
    }
  }
}
node {
  name: "deep_cluster_gn/graph_builder/rechit_gcn/dense_rechits/dense_rechits_1/squeeze_batch_dims/concat"
  op: "ConcatV2"
  input: "deep_cluster_gn/graph_builder/rechit_gcn/dense_rechits/dense_rechits_1/squeeze_batch_dims/strided_slice"
  input: "deep_cluster_gn/graph_builder/rechit_gcn/dense_rechits/dense_rechits_1/squeeze_batch_dims/concat/values_1"
  input: "deep_cluster_gn/graph_builder/rechit_gcn/dense_rechits/dense_rechits_1/squeeze_batch_dims/concat/axis"
  attr {
    key: "N"
    value {
      i: 2
    }
  }
  attr {
    key: "T"
    value {
      type: DT_INT32
    }
  }
  attr {
    key: "Tidx"
    value {
      type: DT_INT32
    }
  }
}
node {
  name: "deep_cluster_gn/graph_builder/rechit_gcn/dense_rechits/dense_rechits_1/squeeze_batch_dims/Reshape_1"
  op: "Reshape"
  input: "deep_cluster_gn/graph_builder/rechit_gcn/dense_rechits/dense_rechits_1/squeeze_batch_dims/BiasAdd"
  input: "deep_cluster_gn/graph_builder/rechit_gcn/dense_rechits/dense_rechits_1/squeeze_batch_dims/concat"
  attr {
    key: "T"
    value {
      type: DT_FLOAT
    }
  }
  attr {
    key: "Tshape"
    value {
      type: DT_INT32
    }
  }
}
node {
  name: "deep_cluster_gn/graph_builder/rechit_gcn/dense_rechits/dense_rechits_1/Elu"
  op: "Elu"
  input: "deep_cluster_gn/graph_builder/rechit_gcn/dense_rechits/dense_rechits_1/squeeze_batch_dims/Reshape_1"
  attr {
    key: "T"
    value {
      type: DT_FLOAT
    }
  }
}
node {
  name: "deep_cluster_gn/graph_builder/rechit_gcn/dropout_2/Identity"
  op: "Identity"
  input: "deep_cluster_gn/graph_builder/rechit_gcn/dense_rechits/dense_rechits_1/Elu"
  attr {
    key: "T"
    value {
      type: DT_FLOAT
    }
  }
}
node {
  name: "deep_cluster_gn/graph_builder/rechit_gcn/add_1"
  op: "AddV2"
  input: "deep_cluster_gn/graph_builder/rechit_gcn/dropout_2/Identity"
  input: "deep_cluster_gn/graph_builder/rechit_gcn/mul_2"
  attr {
    key: "T"
    value {
      type: DT_FLOAT
    }
  }
}
node {
  name: "deep_cluster_gn/graph_builder/rechit_gcn/out_norm_rechits/Shape"
  op: "Shape"
  input: "deep_cluster_gn/graph_builder/rechit_gcn/add_1"
  attr {
    key: "T"
    value {
      type: DT_FLOAT
    }
  }
  attr {
    key: "out_type"
    value {
      type: DT_INT32
    }
  }
}
node {
  name: "deep_cluster_gn/graph_builder/rechit_gcn/out_norm_rechits/strided_slice/stack"
  op: "Const"
  attr {
    key: "dtype"
    value {
      type: DT_INT32
    }
  }
  attr {
    key: "value"
    value {
      tensor {
        dtype: DT_INT32
        tensor_shape {
          dim {
            size: 1
          }
        }
        int_val: 0
      }
    }
  }
}
node {
  name: "deep_cluster_gn/graph_builder/rechit_gcn/out_norm_rechits/strided_slice/stack_1"
  op: "Const"
  attr {
    key: "dtype"
    value {
      type: DT_INT32
    }
  }
  attr {
    key: "value"
    value {
      tensor {
        dtype: DT_INT32
        tensor_shape {
          dim {
            size: 1
          }
        }
        int_val: 1
      }
    }
  }
}
node {
  name: "deep_cluster_gn/graph_builder/rechit_gcn/out_norm_rechits/strided_slice/stack_2"
  op: "Const"
  attr {
    key: "dtype"
    value {
      type: DT_INT32
    }
  }
  attr {
    key: "value"
    value {
      tensor {
        dtype: DT_INT32
        tensor_shape {
          dim {
            size: 1
          }
        }
        int_val: 1
      }
    }
  }
}
node {
  name: "deep_cluster_gn/graph_builder/rechit_gcn/out_norm_rechits/strided_slice"
  op: "StridedSlice"
  input: "deep_cluster_gn/graph_builder/rechit_gcn/out_norm_rechits/Shape"
  input: "deep_cluster_gn/graph_builder/rechit_gcn/out_norm_rechits/strided_slice/stack"
  input: "deep_cluster_gn/graph_builder/rechit_gcn/out_norm_rechits/strided_slice/stack_1"
  input: "deep_cluster_gn/graph_builder/rechit_gcn/out_norm_rechits/strided_slice/stack_2"
  attr {
    key: "Index"
    value {
      type: DT_INT32
    }
  }
  attr {
    key: "T"
    value {
      type: DT_INT32
    }
  }
  attr {
    key: "begin_mask"
    value {
      i: 0
    }
  }
  attr {
    key: "ellipsis_mask"
    value {
      i: 0
    }
  }
  attr {
    key: "end_mask"
    value {
      i: 0
    }
  }
  attr {
    key: "new_axis_mask"
    value {
      i: 0
    }
  }
  attr {
    key: "shrink_axis_mask"
    value {
      i: 1
    }
  }
}
node {
  name: "deep_cluster_gn/graph_builder/rechit_gcn/out_norm_rechits/mul"
  op: "Mul"
  input: "deep_cluster_gn/graph_builder/rechit_gcn/out_norm_rechits/mul/x"
  input: "deep_cluster_gn/graph_builder/rechit_gcn/out_norm_rechits/strided_slice"
  attr {
    key: "T"
    value {
      type: DT_INT32
    }
  }
}
node {
  name: "deep_cluster_gn/graph_builder/rechit_gcn/out_norm_rechits/strided_slice_1/stack"
  op: "Const"
  attr {
    key: "dtype"
    value {
      type: DT_INT32
    }
  }
  attr {
    key: "value"
    value {
      tensor {
        dtype: DT_INT32
        tensor_shape {
          dim {
            size: 1
          }
        }
        int_val: 1
      }
    }
  }
}
node {
  name: "deep_cluster_gn/graph_builder/rechit_gcn/out_norm_rechits/strided_slice_1/stack_1"
  op: "Const"
  attr {
    key: "dtype"
    value {
      type: DT_INT32
    }
  }
  attr {
    key: "value"
    value {
      tensor {
        dtype: DT_INT32
        tensor_shape {
          dim {
            size: 1
          }
        }
        int_val: 2
      }
    }
  }
}
node {
  name: "deep_cluster_gn/graph_builder/rechit_gcn/out_norm_rechits/strided_slice_1/stack_2"
  op: "Const"
  attr {
    key: "dtype"
    value {
      type: DT_INT32
    }
  }
  attr {
    key: "value"
    value {
      tensor {
        dtype: DT_INT32
        tensor_shape {
          dim {
            size: 1
          }
        }
        int_val: 1
      }
    }
  }
}
node {
  name: "deep_cluster_gn/graph_builder/rechit_gcn/out_norm_rechits/strided_slice_1"
  op: "StridedSlice"
  input: "deep_cluster_gn/graph_builder/rechit_gcn/out_norm_rechits/Shape"
  input: "deep_cluster_gn/graph_builder/rechit_gcn/out_norm_rechits/strided_slice_1/stack"
  input: "deep_cluster_gn/graph_builder/rechit_gcn/out_norm_rechits/strided_slice_1/stack_1"
  input: "deep_cluster_gn/graph_builder/rechit_gcn/out_norm_rechits/strided_slice_1/stack_2"
  attr {
    key: "Index"
    value {
      type: DT_INT32
    }
  }
  attr {
    key: "T"
    value {
      type: DT_INT32
    }
  }
  attr {
    key: "begin_mask"
    value {
      i: 0
    }
  }
  attr {
    key: "ellipsis_mask"
    value {
      i: 0
    }
  }
  attr {
    key: "end_mask"
    value {
      i: 0
    }
  }
  attr {
    key: "new_axis_mask"
    value {
      i: 0
    }
  }
  attr {
    key: "shrink_axis_mask"
    value {
      i: 1
    }
  }
}
node {
  name: "deep_cluster_gn/graph_builder/rechit_gcn/out_norm_rechits/mul_1"
  op: "Mul"
  input: "deep_cluster_gn/graph_builder/rechit_gcn/out_norm_rechits/mul"
  input: "deep_cluster_gn/graph_builder/rechit_gcn/out_norm_rechits/strided_slice_1"
  attr {
    key: "T"
    value {
      type: DT_INT32
    }
  }
}
node {
  name: "deep_cluster_gn/graph_builder/rechit_gcn/out_norm_rechits/strided_slice_2/stack"
  op: "Const"
  attr {
    key: "dtype"
    value {
      type: DT_INT32
    }
  }
  attr {
    key: "value"
    value {
      tensor {
        dtype: DT_INT32
        tensor_shape {
          dim {
            size: 1
          }
        }
        int_val: 2
      }
    }
  }
}
node {
  name: "deep_cluster_gn/graph_builder/rechit_gcn/out_norm_rechits/strided_slice_2/stack_1"
  op: "Const"
  attr {
    key: "dtype"
    value {
      type: DT_INT32
    }
  }
  attr {
    key: "value"
    value {
      tensor {
        dtype: DT_INT32
        tensor_shape {
          dim {
            size: 1
          }
        }
        int_val: 3
      }
    }
  }
}
node {
  name: "deep_cluster_gn/graph_builder/rechit_gcn/out_norm_rechits/strided_slice_2/stack_2"
  op: "Const"
  attr {
    key: "dtype"
    value {
      type: DT_INT32
    }
  }
  attr {
    key: "value"
    value {
      tensor {
        dtype: DT_INT32
        tensor_shape {
          dim {
            size: 1
          }
        }
        int_val: 1
      }
    }
  }
}
node {
  name: "deep_cluster_gn/graph_builder/rechit_gcn/out_norm_rechits/strided_slice_2"
  op: "StridedSlice"
  input: "deep_cluster_gn/graph_builder/rechit_gcn/out_norm_rechits/Shape"
  input: "deep_cluster_gn/graph_builder/rechit_gcn/out_norm_rechits/strided_slice_2/stack"
  input: "deep_cluster_gn/graph_builder/rechit_gcn/out_norm_rechits/strided_slice_2/stack_1"
  input: "deep_cluster_gn/graph_builder/rechit_gcn/out_norm_rechits/strided_slice_2/stack_2"
  attr {
    key: "Index"
    value {
      type: DT_INT32
    }
  }
  attr {
    key: "T"
    value {
      type: DT_INT32
    }
  }
  attr {
    key: "begin_mask"
    value {
      i: 0
    }
  }
  attr {
    key: "ellipsis_mask"
    value {
      i: 0
    }
  }
  attr {
    key: "end_mask"
    value {
      i: 0
    }
  }
  attr {
    key: "new_axis_mask"
    value {
      i: 0
    }
  }
  attr {
    key: "shrink_axis_mask"
    value {
      i: 1
    }
  }
}
node {
  name: "deep_cluster_gn/graph_builder/rechit_gcn/out_norm_rechits/mul_2"
  op: "Mul"
  input: "deep_cluster_gn/graph_builder/rechit_gcn/out_norm_rechits/mul_1"
  input: "deep_cluster_gn/graph_builder/rechit_gcn/out_norm_rechits/strided_slice_2"
  attr {
    key: "T"
    value {
      type: DT_INT32
    }
  }
}
node {
  name: "deep_cluster_gn/graph_builder/rechit_gcn/out_norm_rechits/mul_3/x"
  op: "Const"
  attr {
    key: "dtype"
    value {
      type: DT_INT32
    }
  }
  attr {
    key: "value"
    value {
      tensor {
        dtype: DT_INT32
        tensor_shape {
        }
        int_val: 1
      }
    }
  }
}
node {
  name: "deep_cluster_gn/graph_builder/rechit_gcn/out_norm_rechits/strided_slice_3/stack"
  op: "Const"
  attr {
    key: "dtype"
    value {
      type: DT_INT32
    }
  }
  attr {
    key: "value"
    value {
      tensor {
        dtype: DT_INT32
        tensor_shape {
          dim {
            size: 1
          }
        }
        int_val: 3
      }
    }
  }
}
node {
  name: "deep_cluster_gn/graph_builder/rechit_gcn/out_norm_rechits/strided_slice_3/stack_1"
  op: "Const"
  attr {
    key: "dtype"
    value {
      type: DT_INT32
    }
  }
  attr {
    key: "value"
    value {
      tensor {
        dtype: DT_INT32
        tensor_shape {
          dim {
            size: 1
          }
        }
        int_val: 4
      }
    }
  }
}
node {
  name: "deep_cluster_gn/graph_builder/rechit_gcn/out_norm_rechits/strided_slice_3/stack_2"
  op: "Const"
  attr {
    key: "dtype"
    value {
      type: DT_INT32
    }
  }
  attr {
    key: "value"
    value {
      tensor {
        dtype: DT_INT32
        tensor_shape {
          dim {
            size: 1
          }
        }
        int_val: 1
      }
    }
  }
}
node {
  name: "deep_cluster_gn/graph_builder/rechit_gcn/out_norm_rechits/strided_slice_3"
  op: "StridedSlice"
  input: "deep_cluster_gn/graph_builder/rechit_gcn/out_norm_rechits/Shape"
  input: "deep_cluster_gn/graph_builder/rechit_gcn/out_norm_rechits/strided_slice_3/stack"
  input: "deep_cluster_gn/graph_builder/rechit_gcn/out_norm_rechits/strided_slice_3/stack_1"
  input: "deep_cluster_gn/graph_builder/rechit_gcn/out_norm_rechits/strided_slice_3/stack_2"
  attr {
    key: "Index"
    value {
      type: DT_INT32
    }
  }
  attr {
    key: "T"
    value {
      type: DT_INT32
    }
  }
  attr {
    key: "begin_mask"
    value {
      i: 0
    }
  }
  attr {
    key: "ellipsis_mask"
    value {
      i: 0
    }
  }
  attr {
    key: "end_mask"
    value {
      i: 0
    }
  }
  attr {
    key: "new_axis_mask"
    value {
      i: 0
    }
  }
  attr {
    key: "shrink_axis_mask"
    value {
      i: 1
    }
  }
}
node {
  name: "deep_cluster_gn/graph_builder/rechit_gcn/out_norm_rechits/mul_3"
  op: "Mul"
  input: "deep_cluster_gn/graph_builder/rechit_gcn/out_norm_rechits/mul_3/x"
  input: "deep_cluster_gn/graph_builder/rechit_gcn/out_norm_rechits/strided_slice_3"
  attr {
    key: "T"
    value {
      type: DT_INT32
    }
  }
}
node {
  name: "deep_cluster_gn/graph_builder/rechit_gcn/out_norm_rechits/Reshape/shape/3"
  op: "Const"
  attr {
    key: "dtype"
    value {
      type: DT_INT32
    }
  }
  attr {
    key: "value"
    value {
      tensor {
        dtype: DT_INT32
        tensor_shape {
        }
        int_val: 1
      }
    }
  }
}
node {
  name: "deep_cluster_gn/graph_builder/rechit_gcn/out_norm_rechits/Reshape/shape"
  op: "Pack"
  input: "deep_cluster_gn/graph_builder/rechit_gcn/out_norm_rechits/Reshape/shape/0"
  input: "deep_cluster_gn/graph_builder/rechit_gcn/out_norm_rechits/mul_2"
  input: "deep_cluster_gn/graph_builder/rechit_gcn/out_norm_rechits/mul_3"
  input: "deep_cluster_gn/graph_builder/rechit_gcn/out_norm_rechits/Reshape/shape/3"
  attr {
    key: "N"
    value {
      i: 4
    }
  }
  attr {
    key: "T"
    value {
      type: DT_INT32
    }
  }
  attr {
    key: "axis"
    value {
      i: 0
    }
  }
}
node {
  name: "deep_cluster_gn/graph_builder/rechit_gcn/out_norm_rechits/Reshape"
  op: "Reshape"
  input: "deep_cluster_gn/graph_builder/rechit_gcn/add_1"
  input: "deep_cluster_gn/graph_builder/rechit_gcn/out_norm_rechits/Reshape/shape"
  attr {
    key: "T"
    value {
      type: DT_FLOAT
    }
  }
  attr {
    key: "Tshape"
    value {
      type: DT_INT32
    }
  }
}
node {
  name: "deep_cluster_gn/graph_builder/rechit_gcn/out_norm_rechits/Fill/dims"
  op: "Pack"
  input: "deep_cluster_gn/graph_builder/rechit_gcn/out_norm_rechits/mul_2"
  attr {
    key: "N"
    value {
      i: 1
    }
  }
  attr {
    key: "T"
    value {
      type: DT_INT32
    }
  }
  attr {
    key: "axis"
    value {
      i: 0
    }
  }
}
node {
  name: "deep_cluster_gn/graph_builder/rechit_gcn/out_norm_rechits/Const"
  op: "Const"
  attr {
    key: "dtype"
    value {
      type: DT_FLOAT
    }
  }
  attr {
    key: "value"
    value {
      tensor {
        dtype: DT_FLOAT
        tensor_shape {
        }
        float_val: 1.0
      }
    }
  }
}
node {
  name: "deep_cluster_gn/graph_builder/rechit_gcn/out_norm_rechits/Fill"
  op: "Fill"
  input: "deep_cluster_gn/graph_builder/rechit_gcn/out_norm_rechits/Fill/dims"
  input: "deep_cluster_gn/graph_builder/rechit_gcn/out_norm_rechits/Const"
  attr {
    key: "T"
    value {
      type: DT_FLOAT
    }
  }
  attr {
    key: "index_type"
    value {
      type: DT_INT32
    }
  }
}
node {
  name: "deep_cluster_gn/graph_builder/rechit_gcn/out_norm_rechits/Fill_1/dims"
  op: "Pack"
  input: "deep_cluster_gn/graph_builder/rechit_gcn/out_norm_rechits/mul_2"
  attr {
    key: "N"
    value {
      i: 1
    }
  }
  attr {
    key: "T"
    value {
      type: DT_INT32
    }
  }
  attr {
    key: "axis"
    value {
      i: 0
    }
  }
}
node {
  name: "deep_cluster_gn/graph_builder/rechit_gcn/out_norm_rechits/Const_1"
  op: "Const"
  attr {
    key: "dtype"
    value {
      type: DT_FLOAT
    }
  }
  attr {
    key: "value"
    value {
      tensor {
        dtype: DT_FLOAT
        tensor_shape {
        }
        float_val: 0.0
      }
    }
  }
}
node {
  name: "deep_cluster_gn/graph_builder/rechit_gcn/out_norm_rechits/Fill_1"
  op: "Fill"
  input: "deep_cluster_gn/graph_builder/rechit_gcn/out_norm_rechits/Fill_1/dims"
  input: "deep_cluster_gn/graph_builder/rechit_gcn/out_norm_rechits/Const_1"
  attr {
    key: "T"
    value {
      type: DT_FLOAT
    }
  }
  attr {
    key: "index_type"
    value {
      type: DT_INT32
    }
  }
}
node {
  name: "deep_cluster_gn/graph_builder/rechit_gcn/out_norm_rechits/Const_2"
  op: "Const"
  attr {
    key: "dtype"
    value {
      type: DT_FLOAT
    }
  }
  attr {
    key: "value"
    value {
      tensor {
        dtype: DT_FLOAT
        tensor_shape {
          dim {
          }
        }
      }
    }
  }
}
node {
  name: "deep_cluster_gn/graph_builder/rechit_gcn/out_norm_rechits/Const_3"
  op: "Const"
  attr {
    key: "dtype"
    value {
      type: DT_FLOAT
    }
  }
  attr {
    key: "value"
    value {
      tensor {
        dtype: DT_FLOAT
        tensor_shape {
          dim {
          }
        }
      }
    }
  }
}
node {
  name: "deep_cluster_gn/graph_builder/rechit_gcn/out_norm_rechits/FusedBatchNormV3"
  op: "FusedBatchNormV3"
  input: "deep_cluster_gn/graph_builder/rechit_gcn/out_norm_rechits/Reshape"
  input: "deep_cluster_gn/graph_builder/rechit_gcn/out_norm_rechits/Fill"
  input: "deep_cluster_gn/graph_builder/rechit_gcn/out_norm_rechits/Fill_1"
  input: "deep_cluster_gn/graph_builder/rechit_gcn/out_norm_rechits/Const_2"
  input: "deep_cluster_gn/graph_builder/rechit_gcn/out_norm_rechits/Const_3"
  attr {
    key: "T"
    value {
      type: DT_FLOAT
    }
  }
  attr {
    key: "U"
    value {
      type: DT_FLOAT
    }
  }
  attr {
    key: "data_format"
    value {
      s: "NCHW"
    }
  }
  attr {
    key: "epsilon"
    value {
      f: 0.0010000000474974513
    }
  }
  attr {
    key: "exponential_avg_factor"
    value {
      f: 1.0
    }
  }
  attr {
    key: "is_training"
    value {
      b: true
    }
  }
}
node {
  name: "deep_cluster_gn/graph_builder/rechit_gcn/out_norm_rechits/Reshape_1"
  op: "Reshape"
  input: "deep_cluster_gn/graph_builder/rechit_gcn/out_norm_rechits/FusedBatchNormV3"
  input: "deep_cluster_gn/graph_builder/rechit_gcn/out_norm_rechits/Shape"
  attr {
    key: "T"
    value {
      type: DT_FLOAT
    }
  }
  attr {
    key: "Tshape"
    value {
      type: DT_INT32
    }
  }
}
node {
  name: "deep_cluster_gn/graph_builder/rechit_gcn/out_norm_rechits/mul_4/ReadVariableOp/resource"
  op: "Const"
  attr {
    key: "dtype"
    value {
      type: DT_FLOAT
    }
  }
  attr {
    key: "value"
    value {
      tensor {
        dtype: DT_FLOAT
        tensor_shape {
          dim {
            size: 25
          }
        }
        tensor_content: "…"
      }
    }
  }
}
node {
  name: "deep_cluster_gn/graph_builder/rechit_gcn/out_norm_rechits/mul_4/ReadVariableOp"
  op: "Identity"
  input: "deep_cluster_gn/graph_builder/rechit_gcn/out_norm_rechits/mul_4/ReadVariableOp/resource"
  attr {
    key: "T"
    value {
      type: DT_FLOAT
    }
  }
}
node {
  name: "deep_cluster_gn/graph_builder/rechit_gcn/out_norm_rechits/mul_4"
  op: "Mul"
  input: "deep_cluster_gn/graph_builder/rechit_gcn/out_norm_rechits/Reshape_1"
  input: "deep_cluster_gn/graph_builder/rechit_gcn/out_norm_rechits/mul_4/ReadVariableOp"
  attr {
    key: "T"
    value {
      type: DT_FLOAT
    }
  }
}
node {
  name: "deep_cluster_gn/graph_builder/rechit_gcn/out_norm_rechits/add/ReadVariableOp/resource"
  op: "Const"
  attr {
    key: "dtype"
    value {
      type: DT_FLOAT
    }
  }
  attr {
    key: "value"
    value {
      tensor {
        dtype: DT_FLOAT
        tensor_shape {
          dim {
            size: 25
          }
        }
        tensor_content: "…"
      }
    }
  }
}
node {
  name: "deep_cluster_gn/graph_builder/rechit_gcn/out_norm_rechits/add/ReadVariableOp"
  op: "Identity"
  input: "deep_cluster_gn/graph_builder/rechit_gcn/out_norm_rechits/add/ReadVariableOp/resource"
  attr {
    key: "T"
    value {
      type: DT_FLOAT
    }
  }
}
node {
  name: "deep_cluster_gn/graph_builder/rechit_gcn/out_norm_rechits/add"
  op: "AddV2"
  input: "deep_cluster_gn/graph_builder/rechit_gcn/out_norm_rechits/mul_4"
  input: "deep_cluster_gn/graph_builder/rechit_gcn/out_norm_rechits/add/ReadVariableOp"
  attr {
    key: "T"
    value {
      type: DT_FLOAT
    }
  }
}
node {
  name: "deep_cluster_gn/graph_builder/rechit_gcn/mul_3"
  op: "Mul"
  input: "deep_cluster_gn/graph_builder/rechit_gcn/out_norm_rechits/add"
  input: "deep_cluster_gn/graph_builder/rechit_gcn/strided_slice_5"
  attr {
    key: "T"
    value {
      type: DT_FLOAT
    }
  }
}
node {
  name: "deep_cluster_gn/graph_builder/rechit_gcn/Sum_1/reduction_indices"
  op: "Const"
  attr {
    key: "dtype"
    value {
      type: DT_INT32
    }
  }
  attr {
    key: "value"
    value {
      tensor {
        dtype: DT_INT32
        tensor_shape {
        }
        int_val: -2
      }
    }
  }
}
node {
  name: "deep_cluster_gn/graph_builder/rechit_gcn/Sum_1"
  op: "Sum"
  input: "deep_cluster_gn/graph_builder/rechit_gcn/mul_3"
  input: "deep_cluster_gn/graph_builder/rechit_gcn/Sum_1/reduction_indices"
  attr {
    key: "T"
    value {
      type: DT_FLOAT
    }
  }
  attr {
    key: "Tidx"
    value {
      type: DT_INT32
    }
  }
  attr {
    key: "keep_dims"
    value {
      b: false
    }
  }
}
node {
  name: "deep_cluster_gn/graph_builder/rechit_gcn/Sum/reduction_indices"
  op: "Const"
  attr {
    key: "dtype"
    value {
      type: DT_INT32
    }
  }
  attr {
    key: "value"
    value {
      tensor {
        dtype: DT_INT32
        tensor_shape {
        }
        int_val: -1
      }
    }
  }
}
node {
  name: "deep_cluster_gn/graph_builder/rechit_gcn/Sum"
  op: "Sum"
  input: "deep_cluster_gn/graph_builder/Cast"
  input: "deep_cluster_gn/graph_builder/rechit_gcn/Sum/reduction_indices"
  attr {
    key: "T"
    value {
      type: DT_FLOAT
    }
  }
  attr {
    key: "Tidx"
    value {
      type: DT_INT32
    }
  }
  attr {
    key: "keep_dims"
    value {
      b: false
    }
  }
}
node {
  name: "deep_cluster_gn/graph_builder/rechit_gcn/strided_slice_6/stack"
  op: "Const"
  attr {
    key: "dtype"
    value {
      type: DT_INT32
    }
  }
  attr {
    key: "value"
    value {
      tensor {
        dtype: DT_INT32
        tensor_shape {
          dim {
            size: 3
          }
        }
        tensor_content: "\000\000\000\000\000\000\000\000\000\000\000\000"
      }
    }
  }
}
node {
  name: "deep_cluster_gn/graph_builder/rechit_gcn/strided_slice_6/stack_1"
  op: "Const"
  attr {
    key: "dtype"
    value {
      type: DT_INT32
    }
  }
  attr {
    key: "value"
    value {
      tensor {
        dtype: DT_INT32
        tensor_shape {
          dim {
            size: 3
          }
        }
        tensor_content: "\000\000\000\000\000\000\000\000\000\000\000\000"
      }
    }
  }
}
node {
  name: "deep_cluster_gn/graph_builder/rechit_gcn/strided_slice_6/stack_2"
  op: "Const"
  attr {
    key: "dtype"
    value {
      type: DT_INT32
    }
  }
  attr {
    key: "value"
    value {
      tensor {
        dtype: DT_INT32
        tensor_shape {
          dim {
            size: 3
          }
        }
        tensor_content: "\001\000\000\000\001\000\000\000\001\000\000\000"
      }
    }
  }
}
node {
  name: "deep_cluster_gn/graph_builder/rechit_gcn/strided_slice_6"
  op: "StridedSlice"
  input: "deep_cluster_gn/graph_builder/rechit_gcn/Sum"
  input: "deep_cluster_gn/graph_builder/rechit_gcn/strided_slice_6/stack"
  input: "deep_cluster_gn/graph_builder/rechit_gcn/strided_slice_6/stack_1"
  input: "deep_cluster_gn/graph_builder/rechit_gcn/strided_slice_6/stack_2"
  attr {
    key: "Index"
    value {
      type: DT_INT32
    }
  }
  attr {
    key: "T"
    value {
      type: DT_FLOAT
    }
  }
  attr {
    key: "begin_mask"
    value {
      i: 3
    }
  }
  attr {
    key: "ellipsis_mask"
    value {
      i: 0
    }
  }
  attr {
    key: "end_mask"
    value {
      i: 3
    }
  }
  attr {
    key: "new_axis_mask"
    value {
      i: 4
    }
  }
  attr {
    key: "shrink_axis_mask"
    value {
      i: 0
    }
  }
}
node {
  name: "deep_cluster_gn/graph_builder/rechit_gcn/div_no_nan"
  op: "DivNoNan"
  input: "deep_cluster_gn/graph_builder/rechit_gcn/Sum_1"
  input: "deep_cluster_gn/graph_builder/rechit_gcn/strided_slice_6"
  attr {
    key: "T"
    value {
      type: DT_FLOAT
    }
  }
}
node {
  name: "deep_cluster_gn/graph_builder/concatenate/concat/axis"
  op: "Const"
  attr {
    key: "dtype"
    value {
      type: DT_INT32
    }
  }
  attr {
    key: "value"
    value {
      tensor {
        dtype: DT_INT32
        tensor_shape {
        }
        int_val: 2
      }
    }
  }
}
node {
  name: "deep_cluster_gn/graph_builder/concatenate/concat"
  op: "ConcatV2"
  input: "deep_cluster_gn/concat"
  input: "deep_cluster_gn/graph_builder/rechit_gcn/div_no_nan"
  input: "deep_cluster_gn/graph_builder/concatenate/concat/axis"
  attr {
    key: "N"
    value {
      i: 2
    }
  }
  attr {
    key: "T"
    value {
      type: DT_FLOAT
    }
  }
  attr {
    key: "Tidx"
    value {
      type: DT_INT32
    }
  }
}
node {
  name: "deep_cluster_gn/graph_builder/dense_nodes_feats/dense_nodes_feats_0/conv1d/ExpandDims/dim"
  op: "Const"
  attr {
    key: "dtype"
    value {
      type: DT_INT32
    }
  }
  attr {
    key: "value"
    value {
      tensor {
        dtype: DT_INT32
        tensor_shape {
        }
        int_val: -3
      }
    }
  }
}
node {
  name: "deep_cluster_gn/graph_builder/dense_nodes_feats/dense_nodes_feats_0/conv1d/ExpandDims"
  op: "ExpandDims"
  input: "deep_cluster_gn/graph_builder/concatenate/concat"
  input: "deep_cluster_gn/graph_builder/dense_nodes_feats/dense_nodes_feats_0/conv1d/ExpandDims/dim"
  attr {
    key: "T"
    value {
      type: DT_FLOAT
    }
  }
  attr {
    key: "Tdim"
    value {
      type: DT_INT32
    }
  }
}
node {
  name: "deep_cluster_gn/graph_builder/dense_nodes_feats/dense_nodes_feats_0/conv1d/ExpandDims_1/ReadVariableOp/resource"
  op: "Const"
  attr {
    key: "dtype"
    value {
      type: DT_FLOAT
    }
  }
  attr {
    key: "value"
    value {
      tensor {
        dtype: DT_FLOAT
        tensor_shape {
          dim {
            size: 1
          }
          dim {
            size: 38
          }
          dim {
            size: 256
          }
        }
        tensor_content: "…"
      }
    }
  }
}
node {
  name: "deep_cluster_gn/graph_builder/dense_nodes_feats/dense_nodes_feats_0/conv1d/ExpandDims_1/ReadVariableOp"
  op: "Identity"
  input: "deep_cluster_gn/graph_builder/dense_nodes_feats/dense_nodes_feats_0/conv1d/ExpandDims_1/ReadVariableOp/resource"
  attr {
    key: "T"
    value {
      type: DT_FLOAT
    }
  }
}
node {
  name: "deep_cluster_gn/graph_builder/dense_nodes_feats/dense_nodes_feats_0/conv1d/ExpandDims_1/dim"
  op: "Const"
  attr {
    key: "dtype"
    value {
      type: DT_INT32
    }
  }
  attr {
    key: "value"
    value {
      tensor {
        dtype: DT_INT32
        tensor_shape {
        }
        int_val: 0
      }
    }
  }
}
node {
  name: "deep_cluster_gn/graph_builder/dense_nodes_feats/dense_nodes_feats_0/conv1d/ExpandDims_1"
  op: "ExpandDims"
  input: "deep_cluster_gn/graph_builder/dense_nodes_feats/dense_nodes_feats_0/conv1d/ExpandDims_1/ReadVariableOp"
  input: "deep_cluster_gn/graph_builder/dense_nodes_feats/dense_nodes_feats_0/conv1d/ExpandDims_1/dim"
  attr {
    key: "T"
    value {
      type: DT_FLOAT
    }
  }
  attr {
    key: "Tdim"
    value {
      type: DT_INT32
    }
  }
}
node {
  name: "deep_cluster_gn/graph_builder/dense_nodes_feats/dense_nodes_feats_0/conv1d"
  op: "Conv2D"
  input: "deep_cluster_gn/graph_builder/dense_nodes_feats/dense_nodes_feats_0/conv1d/ExpandDims"
  input: "deep_cluster_gn/graph_builder/dense_nodes_feats/dense_nodes_feats_0/conv1d/ExpandDims_1"
  attr {
    key: "T"
    value {
      type: DT_FLOAT
    }
  }
  attr {
    key: "data_format"
    value {
      s: "NHWC"
    }
  }
  attr {
    key: "dilations"
    value {
      list {
        i: 1
        i: 1
        i: 1
        i: 1
      }
    }
  }
  attr {
    key: "explicit_paddings"
    value {
      list {
      }
    }
  }
  attr {
    key: "padding"
    value {
      s: "VALID"
    }
  }
  attr {
    key: "strides"
    value {
      list {
        i: 1
        i: 1
        i: 1
        i: 1
      }
    }
  }
  attr {
    key: "use_cudnn_on_gpu"
    value {
      b: true
    }
  }
}
node {
  name: "deep_cluster_gn/graph_builder/dense_nodes_feats/dense_nodes_feats_0/conv1d/Squeeze"
  op: "Squeeze"
  input: "deep_cluster_gn/graph_builder/dense_nodes_feats/dense_nodes_feats_0/conv1d"
  attr {
    key: "T"
    value {
      type: DT_FLOAT
    }
  }
  attr {
    key: "squeeze_dims"
    value {
      list {
        i: -3
      }
    }
  }
}
node {
  name: "deep_cluster_gn/graph_builder/dense_nodes_feats/dense_nodes_feats_0/BiasAdd/ReadVariableOp/resource"
  op: "Const"
  attr {
    key: "dtype"
    value {
      type: DT_FLOAT
    }
  }
  attr {
    key: "value"
    value {
      tensor {
        dtype: DT_FLOAT
        tensor_shape {
          dim {
            size: 256
          }
        }
        tensor_content: "…"
      }
    }
  }
}
node {
  name: "deep_cluster_gn/graph_builder/dense_nodes_feats/dense_nodes_feats_0/BiasAdd/ReadVariableOp"
  op: "Identity"
  input: "deep_cluster_gn/graph_builder/dense_nodes_feats/dense_nodes_feats_0/BiasAdd/ReadVariableOp/resource"
  attr {
    key: "T"
    value {
      type: DT_FLOAT
    }
  }
}
node {
  name: "deep_cluster_gn/graph_builder/dense_nodes_feats/dense_nodes_feats_0/BiasAdd"
  op: "BiasAdd"
  input: "deep_cluster_gn/graph_builder/dense_nodes_feats/dense_nodes_feats_0/conv1d/Squeeze"
  input: "deep_cluster_gn/graph_builder/dense_nodes_feats/dense_nodes_feats_0/BiasAdd/ReadVariableOp"
  attr {
    key: "T"
    value {
      type: DT_FLOAT
    }
  }
  attr {
    key: "data_format"
    value {
      s: "NHWC"
    }
  }
}
node {
  name: "deep_cluster_gn/graph_builder/dense_nodes_feats/dense_nodes_feats_0/Elu"
  op: "Elu"
  input: "deep_cluster_gn/graph_builder/dense_nodes_feats/dense_nodes_feats_0/BiasAdd"
  attr {
    key: "T"
    value {
      type: DT_FLOAT
    }
  }
}
node {
  name: "deep_cluster_gn/graph_builder/dense_nodes_feats/dropout_3/Identity"
  op: "Identity"
  input: "deep_cluster_gn/graph_builder/dense_nodes_feats/dense_nodes_feats_0/Elu"
  attr {
    key: "T"
    value {
      type: DT_FLOAT
    }
  }
}
node {
  name: "deep_cluster_gn/graph_builder/dense_nodes_feats/dense_nodes_feats_1/conv1d/ExpandDims/dim"
  op: "Const"
  attr {
    key: "dtype"
    value {
      type: DT_INT32
    }
  }
  attr {
    key: "value"
    value {
      tensor {
        dtype: DT_INT32
        tensor_shape {
        }
        int_val: -3
      }
    }
  }
}
node {
  name: "deep_cluster_gn/graph_builder/dense_nodes_feats/dense_nodes_feats_1/conv1d/ExpandDims"
  op: "ExpandDims"
  input: "deep_cluster_gn/graph_builder/dense_nodes_feats/dropout_3/Identity"
  input: "deep_cluster_gn/graph_builder/dense_nodes_feats/dense_nodes_feats_1/conv1d/ExpandDims/dim"
  attr {
    key: "T"
    value {
      type: DT_FLOAT
    }
  }
  attr {
    key: "Tdim"
    value {
      type: DT_INT32
    }
  }
}
node {
  name: "deep_cluster_gn/graph_builder/dense_nodes_feats/dense_nodes_feats_1/conv1d/ExpandDims_1/ReadVariableOp/resource"
  op: "Const"
  attr {
    key: "dtype"
    value {
      type: DT_FLOAT
    }
  }
  attr {
    key: "value"
    value {
      tensor {
        dtype: DT_FLOAT
        tensor_shape {
          dim {
            size: 1
          }
          dim {
            size: 256
          }
          dim {
            size: 128
          }
        }
        tensor_content: "…"
      }
    }
  }
}
node {
  name: "deep_cluster_gn/graph_builder/dense_nodes_feats/dense_nodes_feats_1/conv1d/ExpandDims_1/ReadVariableOp"
  op: "Identity"
  input: "deep_cluster_gn/graph_builder/dense_nodes_feats/dense_nodes_feats_1/conv1d/ExpandDims_1/ReadVariableOp/resource"
  attr {
    key: "T"
    value {
      type: DT_FLOAT
    }
  }
}
node {
  name: "deep_cluster_gn/graph_builder/dense_nodes_feats/dense_nodes_feats_1/conv1d/ExpandDims_1/dim"
  op: "Const"
  attr {
    key: "dtype"
    value {
      type: DT_INT32
    }
  }
  attr {
    key: "value"
    value {
      tensor {
        dtype: DT_INT32
        tensor_shape {
        }
        int_val: 0
      }
    }
  }
}
node {
  name: "deep_cluster_gn/graph_builder/dense_nodes_feats/dense_nodes_feats_1/conv1d/ExpandDims_1"
  op: "ExpandDims"
  input: "deep_cluster_gn/graph_builder/dense_nodes_feats/dense_nodes_feats_1/conv1d/ExpandDims_1/ReadVariableOp"
  input: "deep_cluster_gn/graph_builder/dense_nodes_feats/dense_nodes_feats_1/conv1d/ExpandDims_1/dim"
  attr {
    key: "T"
    value {
      type: DT_FLOAT
    }
  }
  attr {
    key: "Tdim"
    value {
      type: DT_INT32
    }
  }
}
node {
  name: "deep_cluster_gn/graph_builder/dense_nodes_feats/dense_nodes_feats_1/conv1d"
  op: "Conv2D"
  input: "deep_cluster_gn/graph_builder/dense_nodes_feats/dense_nodes_feats_1/conv1d/ExpandDims"
  input: "deep_cluster_gn/graph_builder/dense_nodes_feats/dense_nodes_feats_1/conv1d/ExpandDims_1"
  attr {
    key: "T"
    value {
      type: DT_FLOAT
    }
  }
  attr {
    key: "data_format"
    value {
      s: "NHWC"
    }
  }
  attr {
    key: "dilations"
    value {
      list {
        i: 1
        i: 1
        i: 1
        i: 1
      }
    }
  }
  attr {
    key: "explicit_paddings"
    value {
      list {
      }
    }
  }
  attr {
    key: "padding"
    value {
      s: "VALID"
    }
  }
  attr {
    key: "strides"
    value {
      list {
        i: 1
        i: 1
        i: 1
        i: 1
      }
    }
  }
  attr {
    key: "use_cudnn_on_gpu"
    value {
      b: true
    }
  }
}
node {
  name: "deep_cluster_gn/graph_builder/dense_nodes_feats/dense_nodes_feats_1/conv1d/Squeeze"
  op: "Squeeze"
  input: "deep_cluster_gn/graph_builder/dense_nodes_feats/dense_nodes_feats_1/conv1d"
  attr {
    key: "T"
    value {
      type: DT_FLOAT
    }
  }
  attr {
    key: "squeeze_dims"
    value {
      list {
        i: -3
      }
    }
  }
}
node {
  name: "deep_cluster_gn/graph_builder/dense_nodes_feats/dense_nodes_feats_1/BiasAdd/ReadVariableOp/resource"
  op: "Const"
  attr {
    key: "dtype"
    value {
      type: DT_FLOAT
    }
  }
  attr {
    key: "value"
    value {
      tensor {
        dtype: DT_FLOAT
        tensor_shape {
          dim {
            size: 128
          }
        }
        tensor_content: "…"
      }
    }
  }
}
node {
  name: "deep_cluster_gn/graph_builder/dense_nodes_feats/dense_nodes_feats_1/BiasAdd/ReadVariableOp"
  op: "Identity"
  input: "deep_cluster_gn/graph_builder/dense_nodes_feats/dense_nodes_feats_1/BiasAdd/ReadVariableOp/resource"
  attr {
    key: "T"
    value {
      type: DT_FLOAT
    }
  }
}
node {
  name: "deep_cluster_gn/graph_builder/dense_nodes_feats/dense_nodes_feats_1/BiasAdd"
  op: "BiasAdd"
  input: "deep_cluster_gn/graph_builder/dense_nodes_feats/dense_nodes_feats_1/conv1d/Squeeze"
  input: "deep_cluster_gn/graph_builder/dense_nodes_feats/dense_nodes_feats_1/BiasAdd/ReadVariableOp"
  attr {
    key: "T"
    value {
      type: DT_FLOAT
    }
  }
  attr {
    key: "data_format"
    value {
      s: "NHWC"
    }
  }
}
node {
  name: "deep_cluster_gn/graph_builder/dense_nodes_feats/dense_nodes_feats_1/Elu"
  op: "Elu"
  input: "deep_cluster_gn/graph_builder/dense_nodes_feats/dense_nodes_feats_1/BiasAdd"
  attr {
    key: "T"
    value {
      type: DT_FLOAT
    }
  }
}
node {
  name: "deep_cluster_gn/graph_builder/dense_nodes_feats/dropout_4/Identity"
  op: "Identity"
  input: "deep_cluster_gn/graph_builder/dense_nodes_feats/dense_nodes_feats_1/Elu"
  attr {
    key: "T"
    value {
      type: DT_FLOAT
    }
  }
}
node {
  name: "deep_cluster_gn/graph_builder/dense_nodes_feats/dense_nodes_feats_2/conv1d/ExpandDims/dim"
  op: "Const"
  attr {
    key: "dtype"
    value {
      type: DT_INT32
    }
  }
  attr {
    key: "value"
    value {
      tensor {
        dtype: DT_INT32
        tensor_shape {
        }
        int_val: -3
      }
    }
  }
}
node {
  name: "deep_cluster_gn/graph_builder/dense_nodes_feats/dense_nodes_feats_2/conv1d/ExpandDims"
  op: "ExpandDims"
  input: "deep_cluster_gn/graph_builder/dense_nodes_feats/dropout_4/Identity"
  input: "deep_cluster_gn/graph_builder/dense_nodes_feats/dense_nodes_feats_2/conv1d/ExpandDims/dim"
  attr {
    key: "T"
    value {
      type: DT_FLOAT
    }
  }
  attr {
    key: "Tdim"
    value {
      type: DT_INT32
    }
  }
}
node {
  name: "deep_cluster_gn/graph_builder/dense_nodes_feats/dense_nodes_feats_2/conv1d/ExpandDims_1/ReadVariableOp/resource"
  op: "Const"
  attr {
    key: "dtype"
    value {
      type: DT_FLOAT
    }
  }
  attr {
    key: "value"
    value {
      tensor {
        dtype: DT_FLOAT
        tensor_shape {
          dim {
            size: 1
          }
          dim {
            size: 128
          }
          dim {
            size: 128
          }
        }
        tensor_content: "…"
      }
    }
  }
}
node {
  name: "deep_cluster_gn/graph_builder/dense_nodes_feats/dense_nodes_feats_2/conv1d/ExpandDims_1/ReadVariableOp"
  op: "Identity"
  input: "deep_cluster_gn/graph_builder/dense_nodes_feats/dense_nodes_feats_2/conv1d/ExpandDims_1/ReadVariableOp/resource"
  attr {
    key: "T"
    value {
      type: DT_FLOAT
    }
  }
}
node {
  name: "deep_cluster_gn/graph_builder/dense_nodes_feats/dense_nodes_feats_2/conv1d/ExpandDims_1/dim"
  op: "Const"
  attr {
    key: "dtype"
    value {
      type: DT_INT32
    }
  }
  attr {
    key: "value"
    value {
      tensor {
        dtype: DT_INT32
        tensor_shape {
        }
        int_val: 0
      }
    }
  }
}
node {
  name: "deep_cluster_gn/graph_builder/dense_nodes_feats/dense_nodes_feats_2/conv1d/ExpandDims_1"
  op: "ExpandDims"
  input: "deep_cluster_gn/graph_builder/dense_nodes_feats/dense_nodes_feats_2/conv1d/ExpandDims_1/ReadVariableOp"
  input: "deep_cluster_gn/graph_builder/dense_nodes_feats/dense_nodes_feats_2/conv1d/ExpandDims_1/dim"
  attr {
    key: "T"
    value {
      type: DT_FLOAT
    }
  }
  attr {
    key: "Tdim"
    value {
      type: DT_INT32
    }
  }
}
node {
  name: "deep_cluster_gn/graph_builder/dense_nodes_feats/dense_nodes_feats_2/conv1d"
  op: "Conv2D"
  input: "deep_cluster_gn/graph_builder/dense_nodes_feats/dense_nodes_feats_2/conv1d/ExpandDims"
  input: "deep_cluster_gn/graph_builder/dense_nodes_feats/dense_nodes_feats_2/conv1d/ExpandDims_1"
  attr {
    key: "T"
    value {
      type: DT_FLOAT
    }
  }
  attr {
    key: "data_format"
    value {
      s: "NHWC"
    }
  }
  attr {
    key: "dilations"
    value {
      list {
        i: 1
        i: 1
        i: 1
        i: 1
      }
    }
  }
  attr {
    key: "explicit_paddings"
    value {
      list {
      }
    }
  }
  attr {
    key: "padding"
    value {
      s: "VALID"
    }
  }
  attr {
    key: "strides"
    value {
      list {
        i: 1
        i: 1
        i: 1
        i: 1
      }
    }
  }
  attr {
    key: "use_cudnn_on_gpu"
    value {
      b: true
    }
  }
}
node {
  name: "deep_cluster_gn/graph_builder/dense_nodes_feats/dense_nodes_feats_2/conv1d/Squeeze"
  op: "Squeeze"
  input: "deep_cluster_gn/graph_builder/dense_nodes_feats/dense_nodes_feats_2/conv1d"
  attr {
    key: "T"
    value {
      type: DT_FLOAT
    }
  }
  attr {
    key: "squeeze_dims"
    value {
      list {
        i: -3
      }
    }
  }
}
node {
  name: "deep_cluster_gn/graph_builder/dense_nodes_feats/dense_nodes_feats_2/BiasAdd/ReadVariableOp/resource"
  op: "Const"
  attr {
    key: "dtype"
    value {
      type: DT_FLOAT
    }
  }
  attr {
    key: "value"
    value {
      tensor {
        dtype: DT_FLOAT
        tensor_shape {
          dim {
            size: 128
          }
        }
        tensor_content: "…"
      }
    }
  }
}
node {
  name: "deep_cluster_gn/graph_builder/dense_nodes_feats/dense_nodes_feats_2/BiasAdd/ReadVariableOp"
  op: "Identity"
  input: "deep_cluster_gn/graph_builder/dense_nodes_feats/dense_nodes_feats_2/BiasAdd/ReadVariableOp/resource"
  attr {
    key: "T"
    value {
      type: DT_FLOAT
    }
  }
}
node {
  name: "deep_cluster_gn/graph_builder/dense_nodes_feats/dense_nodes_feats_2/BiasAdd"
  op: "BiasAdd"
  input: "deep_cluster_gn/graph_builder/dense_nodes_feats/dense_nodes_feats_2/conv1d/Squeeze"
  input: "deep_cluster_gn/graph_builder/dense_nodes_feats/dense_nodes_feats_2/BiasAdd/ReadVariableOp"
  attr {
    key: "T"
    value {
      type: DT_FLOAT
    }
  }
  attr {
    key: "data_format"
    value {
      s: "NHWC"
    }
  }
}
node {
  name: "deep_cluster_gn/graph_builder/dense_nodes_feats/dense_nodes_feats_2/Elu"
  op: "Elu"
  input: "deep_cluster_gn/graph_builder/dense_nodes_feats/dense_nodes_feats_2/BiasAdd"
  attr {
    key: "T"
    value {
      type: DT_FLOAT
    }
  }
}
node {
  name: "deep_cluster_gn/graph_builder/dense_nodes_feats/dropout_5/Identity"
  op: "Identity"
  input: "deep_cluster_gn/graph_builder/dense_nodes_feats/dense_nodes_feats_2/Elu"
  attr {
    key: "T"
    value {
      type: DT_FLOAT
    }
  }
}
node {
  name: "deep_cluster_gn/graph_builder/dense_nodes_feats/dense_nodes_feats_3/conv1d/ExpandDims/dim"
  op: "Const"
  attr {
    key: "dtype"
    value {
      type: DT_INT32
    }
  }
  attr {
    key: "value"
    value {
      tensor {
        dtype: DT_INT32
        tensor_shape {
        }
        int_val: -3
      }
    }
  }
}
node {
  name: "deep_cluster_gn/graph_builder/dense_nodes_feats/dense_nodes_feats_3/conv1d/ExpandDims"
  op: "ExpandDims"
  input: "deep_cluster_gn/graph_builder/dense_nodes_feats/dropout_5/Identity"
  input: "deep_cluster_gn/graph_builder/dense_nodes_feats/dense_nodes_feats_3/conv1d/ExpandDims/dim"
  attr {
    key: "T"
    value {
      type: DT_FLOAT
    }
  }
  attr {
    key: "Tdim"
    value {
      type: DT_INT32
    }
  }
}
node {
  name: "deep_cluster_gn/graph_builder/dense_nodes_feats/dense_nodes_feats_3/conv1d/ExpandDims_1/ReadVariableOp/resource"
  op: "Const"
  attr {
    key: "dtype"
    value {
      type: DT_FLOAT
    }
  }
  attr {
    key: "value"
    value {
      tensor {
        dtype: DT_FLOAT
        tensor_shape {
          dim {
            size: 1
          }
          dim {
            size: 128
          }
          dim {
            size: 64
          }
        }
        tensor_content: "…"
      }
    }
  }
}
node {
  name: "deep_cluster_gn/graph_builder/dense_nodes_feats/dense_nodes_feats_3/conv1d/ExpandDims_1/ReadVariableOp"
  op: "Identity"
  input: "deep_cluster_gn/graph_builder/dense_nodes_feats/dense_nodes_feats_3/conv1d/ExpandDims_1/ReadVariableOp/resource"
  attr {
    key: "T"
    value {
      type: DT_FLOAT
    }
  }
}
node {
  name: "deep_cluster_gn/graph_builder/dense_nodes_feats/dense_nodes_feats_3/conv1d/ExpandDims_1/dim"
  op: "Const"
  attr {
    key: "dtype"
    value {
      type: DT_INT32
    }
  }
  attr {
    key: "value"
    value {
      tensor {
        dtype: DT_INT32
        tensor_shape {
        }
        int_val: 0
      }
    }
  }
}
node {
  name: "deep_cluster_gn/graph_builder/dense_nodes_feats/dense_nodes_feats_3/conv1d/ExpandDims_1"
  op: "ExpandDims"
  input: "deep_cluster_gn/graph_builder/dense_nodes_feats/dense_nodes_feats_3/conv1d/ExpandDims_1/ReadVariableOp"
  input: "deep_cluster_gn/graph_builder/dense_nodes_feats/dense_nodes_feats_3/conv1d/ExpandDims_1/dim"
  attr {
    key: "T"
    value {
      type: DT_FLOAT
    }
  }
  attr {
    key: "Tdim"
    value {
      type: DT_INT32
    }
  }
}
node {
  name: "deep_cluster_gn/graph_builder/dense_nodes_feats/dense_nodes_feats_3/conv1d"
  op: "Conv2D"
  input: "deep_cluster_gn/graph_builder/dense_nodes_feats/dense_nodes_feats_3/conv1d/ExpandDims"
  input: "deep_cluster_gn/graph_builder/dense_nodes_feats/dense_nodes_feats_3/conv1d/ExpandDims_1"
  attr {
    key: "T"
    value {
      type: DT_FLOAT
    }
  }
  attr {
    key: "data_format"
    value {
      s: "NHWC"
    }
  }
  attr {
    key: "dilations"
    value {
      list {
        i: 1
        i: 1
        i: 1
        i: 1
      }
    }
  }
  attr {
    key: "explicit_paddings"
    value {
      list {
      }
    }
  }
  attr {
    key: "padding"
    value {
      s: "VALID"
    }
  }
  attr {
    key: "strides"
    value {
      list {
        i: 1
        i: 1
        i: 1
        i: 1
      }
    }
  }
  attr {
    key: "use_cudnn_on_gpu"
    value {
      b: true
    }
  }
}
node {
  name: "deep_cluster_gn/graph_builder/dense_nodes_feats/dense_nodes_feats_3/conv1d/Squeeze"
  op: "Squeeze"
  input: "deep_cluster_gn/graph_builder/dense_nodes_feats/dense_nodes_feats_3/conv1d"
  attr {
    key: "T"
    value {
      type: DT_FLOAT
    }
  }
  attr {
    key: "squeeze_dims"
    value {
      list {
        i: -3
      }
    }
  }
}
node {
  name: "deep_cluster_gn/graph_builder/dense_nodes_feats/dense_nodes_feats_3/BiasAdd/ReadVariableOp/resource"
  op: "Const"
  attr {
    key: "dtype"
    value {
      type: DT_FLOAT
    }
  }
  attr {
    key: "value"
    value {
      tensor {
        dtype: DT_FLOAT
        tensor_shape {
          dim {
            size: 64
          }
        }
        tensor_content: "…"
      }
    }
  }
}
node {
  name: "deep_cluster_gn/graph_builder/dense_nodes_feats/dense_nodes_feats_3/BiasAdd/ReadVariableOp"
  op: "Identity"
  input: "deep_cluster_gn/graph_builder/dense_nodes_feats/dense_nodes_feats_3/BiasAdd/ReadVariableOp/resource"
  attr {
    key: "T"
    value {
      type: DT_FLOAT
    }
  }
}
node {
  name: "deep_cluster_gn/graph_builder/dense_nodes_feats/dense_nodes_feats_3/BiasAdd"
  op: "BiasAdd"
  input: "deep_cluster_gn/graph_builder/dense_nodes_feats/dense_nodes_feats_3/conv1d/Squeeze"
…
    key: "ellipsis_mask"
    value {
      i: 0
    }
  }
  attr {
    key: "end_mask"
    value {
      i: 3
    }
  }
  attr {
    key: "new_axis_mask"
    value {
      i: 4
    }
  }
  attr {
    key: "shrink_axis_mask"
    value {
      i: 0
    }
  }
}
node {
  name: "deep_cluster_gn/SA_windclass/mul_1"
  op: "Mul"
  input: "deep_cluster_gn/SA_windclass/SA_lnorm1_SA_windclass/add"
  input: "deep_cluster_gn/SA_windclass/strided_slice_1"
  attr {
    key: "T"
    value {
      type: DT_FLOAT
    }
  }
}
node {
  name: "deep_cluster_gn/SA_windclass/output_sa_SA_windclass/output_sa_SA_windclass_0/conv1d/ExpandDims/dim"
  op: "Const"
  attr {
    key: "dtype"
    value {
      type: DT_INT32
    }
  }
  attr {
    key: "value"
    value {
      tensor {
        dtype: DT_INT32
        tensor_shape {
        }
        int_val: -3
      }
    }
  }
}
node {
  name: "deep_cluster_gn/SA_windclass/output_sa_SA_windclass/output_sa_SA_windclass_0/conv1d/ExpandDims"
  op: "ExpandDims"
  input: "deep_cluster_gn/SA_windclass/mul_1"
  input: "deep_cluster_gn/SA_windclass/output_sa_SA_windclass/output_sa_SA_windclass_0/conv1d/ExpandDims/dim"
  attr {
    key: "T"
    value {
      type: DT_FLOAT
    }
  }
  attr {
    key: "Tdim"
    value {
      type: DT_INT32
    }
  }
}
node {
  name: "deep_cluster_gn/SA_windclass/output_sa_SA_windclass/output_sa_SA_windclass_0/conv1d/ExpandDims_1/ReadVariableOp/resource"
  op: "Const"
  attr {
    key: "dtype"
    value {
      type: DT_FLOAT
    }
  }
  attr {
    key: "value"
    value {
      tensor {
        dtype: DT_FLOAT
        tensor_shape {
          dim {
            size: 1
          }
          dim {
            size: 64
          }
          dim {
            size: 64
          }
        }
        tensor_content: "…"
      }
    }
  }
}
node {
  name: "deep_cluster_gn/SA_windclass/output_sa_SA_windclass/output_sa_SA_windclass_0/conv1d/ExpandDims_1/ReadVariableOp"
  op: "Identity"
  input: "deep_cluster_gn/SA_windclass/output_sa_SA_windclass/output_sa_SA_windclass_0/conv1d/ExpandDims_1/ReadVariableOp/resource"
  attr {
    key: "T"
    value {
      type: DT_FLOAT
    }
  }
}
node {
  name: "deep_cluster_gn/SA_windclass/output_sa_SA_windclass/output_sa_SA_windclass_0/conv1d/ExpandDims_1/dim"
  op: "Const"
  attr {
    key: "dtype"
    value {
      type: DT_INT32
    }
  }
  attr {
    key: "value"
    value {
      tensor {
        dtype: DT_INT32
        tensor_shape {
        }
        int_val: 0
      }
    }
  }
}
node {
  name: "deep_cluster_gn/SA_windclass/output_sa_SA_windclass/output_sa_SA_windclass_0/conv1d/ExpandDims_1"
  op: "ExpandDims"
  input: "deep_cluster_gn/SA_windclass/output_sa_SA_windclass/output_sa_SA_windclass_0/conv1d/ExpandDims_1/ReadVariableOp"
  input: "deep_cluster_gn/SA_windclass/output_sa_SA_windclass/output_sa_SA_windclass_0/conv1d/ExpandDims_1/dim"
  attr {
    key: "T"
    value {
      type: DT_FLOAT
    }
  }
  attr {
    key: "Tdim"
    value {
      type: DT_INT32
    }
  }
}
node {
  name: "deep_cluster_gn/SA_windclass/output_sa_SA_windclass/output_sa_SA_windclass_0/conv1d"
  op: "Conv2D"
  input: "deep_cluster_gn/SA_windclass/output_sa_SA_windclass/output_sa_SA_windclass_0/conv1d/ExpandDims"
  input: "deep_cluster_gn/SA_windclass/output_sa_SA_windclass/output_sa_SA_windclass_0/conv1d/ExpandDims_1"
  attr {
    key: "T"
    value {
      type: DT_FLOAT
    }
  }
  attr {
    key: "data_format"
    value {
      s: "NHWC"
    }
  }
  attr {
    key: "dilations"
    value {
      list {
        i: 1
        i: 1
        i: 1
        i: 1
      }
    }
  }
  attr {
    key: "explicit_paddings"
    value {
      list {
      }
    }
  }
  attr {
    key: "padding"
    value {
      s: "VALID"
    }
  }
  attr {
    key: "strides"
    value {
      list {
        i: 1
        i: 1
        i: 1
        i: 1
      }
    }
  }
  attr {
    key: "use_cudnn_on_gpu"
    value {
      b: true
    }
  }
}
node {
  name: "deep_cluster_gn/SA_windclass/output_sa_SA_windclass/output_sa_SA_windclass_0/conv1d/Squeeze"
  op: "Squeeze"
  input: "deep_cluster_gn/SA_windclass/output_sa_SA_windclass/output_sa_SA_windclass_0/conv1d"
  attr {
    key: "T"
    value {
      type: DT_FLOAT
    }
  }
  attr {
    key: "squeeze_dims"
    value {
      list {
        i: -3
      }
    }
  }
}
node {
  name: "deep_cluster_gn/SA_windclass/output_sa_SA_windclass/output_sa_SA_windclass_0/BiasAdd/ReadVariableOp/resource"
  op: "Const"
  attr {
    key: "dtype"
    value {
      type: DT_FLOAT
    }
  }
  attr {
    key: "value"
    value {
      tensor {
        dtype: DT_FLOAT
        tensor_shape {
          dim {
            size: 64
          }
        }
        tensor_content: "…"
      }
    }
  }
}
node {
  name: "deep_cluster_gn/SA_windclass/output_sa_SA_windclass/output_sa_SA_windclass_0/BiasAdd/ReadVariableOp"
  op: "Identity"
  input: "deep_cluster_gn/SA_windclass/output_sa_SA_windclass/output_sa_SA_windclass_0/BiasAdd/ReadVariableOp/resource"
  attr {
    key: "T"
    value {
      type: DT_FLOAT
    }
  }
}
node {
  name: "deep_cluster_gn/SA_windclass/output_sa_SA_windclass/output_sa_SA_windclass_0/BiasAdd"
  op: "BiasAdd"
  input: "deep_cluster_gn/SA_windclass/output_sa_SA_windclass/output_sa_SA_windclass_0/conv1d/Squeeze"
  input: "deep_cluster_gn/SA_windclass/output_sa_SA_windclass/output_sa_SA_windclass_0/BiasAdd/ReadVariableOp"
  attr {
    key: "T"
    value {
      type: DT_FLOAT
    }
  }
  attr {
    key: "data_format"
    value {
      s: "NHWC"
    }
  }
}
node {
  name: "deep_cluster_gn/SA_windclass/output_sa_SA_windclass/output_sa_SA_windclass_0/Elu"
  op: "Elu"
  input: "deep_cluster_gn/SA_windclass/output_sa_SA_windclass/output_sa_SA_windclass_0/BiasAdd"
  attr {
    key: "T"
    value {
      type: DT_FLOAT
    }
  }
}
node {
  name: "deep_cluster_gn/SA_windclass/output_sa_SA_windclass/dropout_14/Identity"
  op: "Identity"
  input: "deep_cluster_gn/SA_windclass/output_sa_SA_windclass/output_sa_SA_windclass_0/Elu"
  attr {
    key: "T"
    value {
      type: DT_FLOAT
    }
  }
}
node {
  name: "deep_cluster_gn/SA_windclass/output_sa_SA_windclass/output_sa_SA_windclass_1/conv1d/ExpandDims/dim"
  op: "Const"
  attr {
    key: "dtype"
    value {
      type: DT_INT32
    }
  }
  attr {
    key: "value"
    value {
      tensor {
        dtype: DT_INT32
        tensor_shape {
        }
        int_val: -3
      }
    }
  }
}
node {
  name: "deep_cluster_gn/SA_windclass/output_sa_SA_windclass/output_sa_SA_windclass_1/conv1d/ExpandDims"
  op: "ExpandDims"
  input: "deep_cluster_gn/SA_windclass/output_sa_SA_windclass/dropout_14/Identity"
  input: "deep_cluster_gn/SA_windclass/output_sa_SA_windclass/output_sa_SA_windclass_1/conv1d/ExpandDims/dim"
  attr {
    key: "T"
    value {
      type: DT_FLOAT
    }
  }
  attr {
    key: "Tdim"
    value {
      type: DT_INT32
    }
  }
}
node {
  name: "deep_cluster_gn/SA_windclass/output_sa_SA_windclass/output_sa_SA_windclass_1/conv1d/ExpandDims_1/ReadVariableOp/resource"
  op: "Const"
  attr {
    key: "dtype"
    value {
      type: DT_FLOAT
    }
  }
  attr {
    key: "value"
    value {
      tensor {
        dtype: DT_FLOAT
        tensor_shape {
          dim {
            size: 1
          }
          dim {
            size: 64
          }
          dim {
            size: 64
          }
        }
        tensor_content: "…"
      }
    }
  }
}
node {
  name: "deep_cluster_gn/SA_windclass/output_sa_SA_windclass/output_sa_SA_windclass_1/conv1d/ExpandDims_1/ReadVariableOp"
  op: "Identity"
  input: "deep_cluster_gn/SA_windclass/output_sa_SA_windclass/output_sa_SA_windclass_1/conv1d/ExpandDims_1/ReadVariableOp/resource"
  attr {
    key: "T"
    value {
      type: DT_FLOAT
    }
  }
}
node {
  name: "deep_cluster_gn/SA_windclass/output_sa_SA_windclass/output_sa_SA_windclass_1/conv1d/ExpandDims_1/dim"
  op: "Const"
  attr {
    key: "dtype"
    value {
      type: DT_INT32
    }
  }
  attr {
    key: "value"
    value {
      tensor {
        dtype: DT_INT32
        tensor_shape {
        }
        int_val: 0
      }
    }
  }
}
node {
  name: "deep_cluster_gn/SA_windclass/output_sa_SA_windclass/output_sa_SA_windclass_1/conv1d/ExpandDims_1"
  op: "ExpandDims"
  input: "deep_cluster_gn/SA_windclass/output_sa_SA_windclass/output_sa_SA_windclass_1/conv1d/ExpandDims_1/ReadVariableOp"
  input: "deep_cluster_gn/SA_windclass/output_sa_SA_windclass/output_sa_SA_windclass_1/conv1d/ExpandDims_1/dim"
  attr {
    key: "T"
    value {
      type: DT_FLOAT
    }
  }
  attr {
    key: "Tdim"
    value {
      type: DT_INT32
    }
  }
}
node {
  name: "deep_cluster_gn/SA_windclass/output_sa_SA_windclass/output_sa_SA_windclass_1/conv1d"
  op: "Conv2D"
  input: "deep_cluster_gn/SA_windclass/output_sa_SA_windclass/output_sa_SA_windclass_1/conv1d/ExpandDims"
  input: "deep_cluster_gn/SA_windclass/output_sa_SA_windclass/output_sa_SA_windclass_1/conv1d/ExpandDims_1"
  attr {
    key: "T"
    value {
      type: DT_FLOAT
    }
  }
  attr {
    key: "data_format"
    value {
      s: "NHWC"
    }
  }
  attr {
    key: "dilations"
    value {
      list {
        i: 1
        i: 1
        i: 1
        i: 1
      }
    }
  }
  attr {
    key: "explicit_paddings"
    value {
      list {
      }
    }
  }
  attr {
    key: "padding"
    value {
      s: "VALID"
    }
  }
  attr {
    key: "strides"
    value {
      list {
        i: 1
        i: 1
        i: 1
        i: 1
      }
    }
  }
  attr {
    key: "use_cudnn_on_gpu"
    value {
      b: true
    }
  }
}
node {
  name: "deep_cluster_gn/SA_windclass/output_sa_SA_windclass/output_sa_SA_windclass_1/conv1d/Squeeze"
  op: "Squeeze"
  input: "deep_cluster_gn/SA_windclass/output_sa_SA_windclass/output_sa_SA_windclass_1/conv1d"
  attr {
    key: "T"
    value {
      type: DT_FLOAT
    }
  }
  attr {
    key: "squeeze_dims"
    value {
      list {
        i: -3
      }
    }
  }
}
node {
  name: "deep_cluster_gn/SA_windclass/output_sa_SA_windclass/output_sa_SA_windclass_1/BiasAdd/ReadVariableOp/resource"
  op: "Const"
  attr {
    key: "dtype"
    value {
      type: DT_FLOAT
    }
  }
  attr {
    key: "value"
    value {
      tensor {
        dtype: DT_FLOAT
        tensor_shape {
          dim {
            size: 64
          }
        }
        tensor_content: "…"
      }
    }
  }
}
node {
  name: "deep_cluster_gn/SA_windclass/output_sa_SA_windclass/output_sa_SA_windclass_1/BiasAdd/ReadVariableOp"
  op: "Identity"
  input: "deep_cluster_gn/SA_windclass/output_sa_SA_windclass/output_sa_SA_windclass_1/BiasAdd/ReadVariableOp/resource"
  attr {
    key: "T"
    value {
      type: DT_FLOAT
    }
  }
}
node {
  name: "deep_cluster_gn/SA_windclass/output_sa_SA_windclass/output_sa_SA_windclass_1/BiasAdd"
  op: "BiasAdd"
  input: "deep_cluster_gn/SA_windclass/output_sa_SA_windclass/output_sa_SA_windclass_1/conv1d/Squeeze"
  input: "deep_cluster_gn/SA_windclass/output_sa_SA_windclass/output_sa_SA_windclass_1/BiasAdd/ReadVariableOp"
  attr {
    key: "T"
    value {
      type: DT_FLOAT
    }
  }
  attr {
    key: "data_format"
    value {
      s: "NHWC"
    }
  }
}
node {
  name: "deep_cluster_gn/SA_windclass/output_sa_SA_windclass/output_sa_SA_windclass_1/Elu"
  op: "Elu"
  input: "deep_cluster_gn/SA_windclass/output_sa_SA_windclass/output_sa_SA_windclass_1/BiasAdd"
  attr {
    key: "T"
    value {
      type: DT_FLOAT
    }
  }
}
node {
  name: "deep_cluster_gn/SA_windclass/dropout_16/Identity"
  op: "Identity"
  input: "deep_cluster_gn/SA_windclass/output_sa_SA_windclass/output_sa_SA_windclass_1/Elu"
  attr {
    key: "T"
    value {
      type: DT_FLOAT
    }
  }
}
node {
  name: "deep_cluster_gn/SA_windclass/add_2"
  op: "AddV2"
  input: "deep_cluster_gn/SA_windclass/dropout_16/Identity"
  input: "deep_cluster_gn/SA_windclass/mul_1"
  attr {
    key: "T"
    value {
      type: DT_FLOAT
    }
  }
}
node {
  name: "deep_cluster_gn/SA_windclass/SA_lnorm2_SA_windclass/Shape"
  op: "Shape"
  input: "deep_cluster_gn/SA_windclass/add_2"
  attr {
    key: "T"
    value {
      type: DT_FLOAT
    }
  }
  attr {
    key: "out_type"
    value {
      type: DT_INT32
    }
  }
}
node {
  name: "deep_cluster_gn/SA_windclass/SA_lnorm2_SA_windclass/strided_slice/stack"
  op: "Const"
  attr {
    key: "dtype"
    value {
      type: DT_INT32
    }
  }
  attr {
    key: "value"
    value {
      tensor {
        dtype: DT_INT32
        tensor_shape {
          dim {
            size: 1
          }
        }
        int_val: 0
      }
    }
  }
}
node {
  name: "deep_cluster_gn/SA_windclass/SA_lnorm2_SA_windclass/strided_slice/stack_1"
  op: "Const"
  attr {
    key: "dtype"
    value {
      type: DT_INT32
    }
  }
  attr {
    key: "value"
    value {
      tensor {
        dtype: DT_INT32
        tensor_shape {
          dim {
            size: 1
          }
        }
        int_val: 1
      }
    }
  }
}
node {
  name: "deep_cluster_gn/SA_windclass/SA_lnorm2_SA_windclass/strided_slice/stack_2"
  op: "Const"
  attr {
    key: "dtype"
    value {
      type: DT_INT32
    }
  }
  attr {
    key: "value"
    value {
      tensor {
        dtype: DT_INT32
        tensor_shape {
          dim {
            size: 1
          }
        }
        int_val: 1
      }
    }
  }
}
node {
  name: "deep_cluster_gn/SA_windclass/SA_lnorm2_SA_windclass/strided_slice"
  op: "StridedSlice"
  input: "deep_cluster_gn/SA_windclass/SA_lnorm2_SA_windclass/Shape"
  input: "deep_cluster_gn/SA_windclass/SA_lnorm2_SA_windclass/strided_slice/stack"
  input: "deep_cluster_gn/SA_windclass/SA_lnorm2_SA_windclass/strided_slice/stack_1"
  input: "deep_cluster_gn/SA_windclass/SA_lnorm2_SA_windclass/strided_slice/stack_2"
  attr {
    key: "Index"
    value {
      type: DT_INT32
    }
  }
  attr {
    key: "T"
    value {
      type: DT_INT32
    }
  }
  attr {
    key: "begin_mask"
    value {
      i: 0
    }
  }
  attr {
    key: "ellipsis_mask"
    value {
      i: 0
    }
  }
  attr {
    key: "end_mask"
    value {
      i: 0
    }
  }
  attr {
    key: "new_axis_mask"
    value {
      i: 0
    }
  }
  attr {
    key: "shrink_axis_mask"
    value {
      i: 1
    }
  }
}
node {
  name: "deep_cluster_gn/SA_windclass/SA_lnorm2_SA_windclass/mul"
  op: "Mul"
  input: "deep_cluster_gn/SA_windclass/SA_lnorm2_SA_windclass/mul/x"
  input: "deep_cluster_gn/SA_windclass/SA_lnorm2_SA_windclass/strided_slice"
  attr {
    key: "T"
    value {
      type: DT_INT32
    }
  }
}
node {
  name: "deep_cluster_gn/SA_windclass/SA_lnorm2_SA_windclass/strided_slice_1/stack"
  op: "Const"
  attr {
    key: "dtype"
    value {
      type: DT_INT32
    }
  }
  attr {
    key: "value"
    value {
      tensor {
        dtype: DT_INT32
        tensor_shape {
          dim {
            size: 1
          }
        }
        int_val: 1
      }
    }
  }
}
node {
  name: "deep_cluster_gn/SA_windclass/SA_lnorm2_SA_windclass/strided_slice_1/stack_1"
  op: "Const"
  attr {
    key: "dtype"
    value {
      type: DT_INT32
    }
  }
  attr {
    key: "value"
    value {
      tensor {
        dtype: DT_INT32
        tensor_shape {
          dim {
            size: 1
          }
        }
        int_val: 2
      }
    }
  }
}
node {
  name: "deep_cluster_gn/SA_windclass/SA_lnorm2_SA_windclass/strided_slice_1/stack_2"
  op: "Const"
  attr {
    key: "dtype"
    value {
      type: DT_INT32
    }
  }
  attr {
    key: "value"
    value {
      tensor {
        dtype: DT_INT32
        tensor_shape {
          dim {
            size: 1
          }
        }
        int_val: 1
      }
    }
  }
}
node {
  name: "deep_cluster_gn/SA_windclass/SA_lnorm2_SA_windclass/strided_slice_1"
  op: "StridedSlice"
  input: "deep_cluster_gn/SA_windclass/SA_lnorm2_SA_windclass/Shape"
  input: "deep_cluster_gn/SA_windclass/SA_lnorm2_SA_windclass/strided_slice_1/stack"
  input: "deep_cluster_gn/SA_windclass/SA_lnorm2_SA_windclass/strided_slice_1/stack_1"
  input: "deep_cluster_gn/SA_windclass/SA_lnorm2_SA_windclass/strided_slice_1/stack_2"
  attr {
    key: "Index"
    value {
      type: DT_INT32
    }
  }
  attr {
    key: "T"
    value {
      type: DT_INT32
    }
  }
  attr {
    key: "begin_mask"
    value {
      i: 0
    }
  }
  attr {
    key: "ellipsis_mask"
    value {
      i: 0
    }
  }
  attr {
    key: "end_mask"
    value {
      i: 0
    }
  }
  attr {
    key: "new_axis_mask"
    value {
      i: 0
    }
  }
  attr {
    key: "shrink_axis_mask"
    value {
      i: 1
    }
  }
}
node {
  name: "deep_cluster_gn/SA_windclass/SA_lnorm2_SA_windclass/mul_1"
  op: "Mul"
  input: "deep_cluster_gn/SA_windclass/SA_lnorm2_SA_windclass/mul"
  input: "deep_cluster_gn/SA_windclass/SA_lnorm2_SA_windclass/strided_slice_1"
  attr {
    key: "T"
    value {
      type: DT_INT32
    }
  }
}
node {
  name: "deep_cluster_gn/SA_windclass/SA_lnorm2_SA_windclass/mul_2/x"
  op: "Const"
  attr {
    key: "dtype"
    value {
      type: DT_INT32
    }
  }
  attr {
    key: "value"
    value {
      tensor {
        dtype: DT_INT32
        tensor_shape {
        }
        int_val: 1
      }
    }
  }
}
node {
  name: "deep_cluster_gn/SA_windclass/SA_lnorm2_SA_windclass/strided_slice_2/stack"
  op: "Const"
  attr {
    key: "dtype"
    value {
      type: DT_INT32
    }
  }
  attr {
    key: "value"
    value {
      tensor {
        dtype: DT_INT32
        tensor_shape {
          dim {
            size: 1
          }
        }
        int_val: 2
      }
    }
  }
}
node {
  name: "deep_cluster_gn/SA_windclass/SA_lnorm2_SA_windclass/strided_slice_2/stack_1"
  op: "Const"
  attr {
    key: "dtype"
    value {
      type: DT_INT32
    }
  }
  attr {
    key: "value"
    value {
      tensor {
        dtype: DT_INT32
        tensor_shape {
          dim {
            size: 1
          }
        }
        int_val: 3
      }
    }
  }
}
node {
  name: "deep_cluster_gn/SA_windclass/SA_lnorm2_SA_windclass/strided_slice_2/stack_2"
  op: "Const"
  attr {
    key: "dtype"
    value {
      type: DT_INT32
    }
  }
  attr {
    key: "value"
    value {
      tensor {
        dtype: DT_INT32
        tensor_shape {
          dim {
            size: 1
          }
        }
        int_val: 1
      }
    }
  }
}
node {
  name: "deep_cluster_gn/SA_windclass/SA_lnorm2_SA_windclass/strided_slice_2"
  op: "StridedSlice"
  input: "deep_cluster_gn/SA_windclass/SA_lnorm2_SA_windclass/Shape"
  input: "deep_cluster_gn/SA_windclass/SA_lnorm2_SA_windclass/strided_slice_2/stack"
  input: "deep_cluster_gn/SA_windclass/SA_lnorm2_SA_windclass/strided_slice_2/stack_1"
  input: "deep_cluster_gn/SA_windclass/SA_lnorm2_SA_windclass/strided_slice_2/stack_2"
  attr {
    key: "Index"
    value {
      type: DT_INT32
    }
  }
  attr {
    key: "T"
    value {
      type: DT_INT32
    }
  }
  attr {
    key: "begin_mask"
    value {
      i: 0
    }
  }
  attr {
    key: "ellipsis_mask"
    value {
      i: 0
    }
  }
  attr {
    key: "end_mask"
    value {
      i: 0
    }
  }
  attr {
    key: "new_axis_mask"
    value {
      i: 0
    }
  }
  attr {
    key: "shrink_axis_mask"
    value {
      i: 1
    }
  }
}
node {
  name: "deep_cluster_gn/SA_windclass/SA_lnorm2_SA_windclass/mul_2"
  op: "Mul"
  input: "deep_cluster_gn/SA_windclass/SA_lnorm2_SA_windclass/mul_2/x"
  input: "deep_cluster_gn/SA_windclass/SA_lnorm2_SA_windclass/strided_slice_2"
  attr {
    key: "T"
    value {
      type: DT_INT32
    }
  }
}
node {
  name: "deep_cluster_gn/SA_windclass/SA_lnorm2_SA_windclass/Reshape/shape/3"
  op: "Const"
  attr {
    key: "dtype"
    value {
      type: DT_INT32
    }
  }
  attr {
    key: "value"
    value {
      tensor {
        dtype: DT_INT32
        tensor_shape {
        }
        int_val: 1
      }
    }
  }
}
node {
  name: "deep_cluster_gn/SA_windclass/SA_lnorm2_SA_windclass/Reshape/shape"
  op: "Pack"
  input: "deep_cluster_gn/SA_windclass/SA_lnorm2_SA_windclass/Reshape/shape/0"
  input: "deep_cluster_gn/SA_windclass/SA_lnorm2_SA_windclass/mul_1"
  input: "deep_cluster_gn/SA_windclass/SA_lnorm2_SA_windclass/mul_2"
  input: "deep_cluster_gn/SA_windclass/SA_lnorm2_SA_windclass/Reshape/shape/3"
  attr {
    key: "N"
    value {
      i: 4
    }
  }
  attr {
    key: "T"
    value {
      type: DT_INT32
    }
  }
  attr {
    key: "axis"
    value {
      i: 0
    }
  }
}
node {
  name: "deep_cluster_gn/SA_windclass/SA_lnorm2_SA_windclass/Reshape"
  op: "Reshape"
  input: "deep_cluster_gn/SA_windclass/add_2"
  input: "deep_cluster_gn/SA_windclass/SA_lnorm2_SA_windclass/Reshape/shape"
  attr {
    key: "T"
    value {
      type: DT_FLOAT
    }
  }
  attr {
    key: "Tshape"
    value {
      type: DT_INT32
    }
  }
}
node {
  name: "deep_cluster_gn/SA_windclass/SA_lnorm2_SA_windclass/Fill/dims"
  op: "Pack"
  input: "deep_cluster_gn/SA_windclass/SA_lnorm2_SA_windclass/mul_1"
  attr {
    key: "N"
    value {
      i: 1
    }
  }
  attr {
    key: "T"
    value {
      type: DT_INT32
    }
  }
  attr {
    key: "axis"
    value {
      i: 0
    }
  }
}
node {
  name: "deep_cluster_gn/SA_windclass/SA_lnorm2_SA_windclass/Const"
  op: "Const"
  attr {
    key: "dtype"
    value {
      type: DT_FLOAT
    }
  }
  attr {
    key: "value"
    value {
      tensor {
        dtype: DT_FLOAT
        tensor_shape {
        }
        float_val: 1.0
      }
    }
  }
}
node {
  name: "deep_cluster_gn/SA_windclass/SA_lnorm2_SA_windclass/Fill"
  op: "Fill"
  input: "deep_cluster_gn/SA_windclass/SA_lnorm2_SA_windclass/Fill/dims"
  input: "deep_cluster_gn/SA_windclass/SA_lnorm2_SA_windclass/Const"
  attr {
    key: "T"
    value {
      type: DT_FLOAT
    }
  }
  attr {
    key: "index_type"
    value {
      type: DT_INT32
    }
  }
}
node {
  name: "deep_cluster_gn/SA_windclass/SA_lnorm2_SA_windclass/Fill_1/dims"
  op: "Pack"
  input: "deep_cluster_gn/SA_windclass/SA_lnorm2_SA_windclass/mul_1"
  attr {
    key: "N"
    value {
      i: 1
    }
  }
  attr {
    key: "T"
    value {
      type: DT_INT32
    }
  }
  attr {
    key: "axis"
    value {
      i: 0
    }
  }
}
node {
  name: "deep_cluster_gn/SA_windclass/SA_lnorm2_SA_windclass/Const_1"
  op: "Const"
  attr {
    key: "dtype"
    value {
      type: DT_FLOAT
    }
  }
  attr {
    key: "value"
    value {
      tensor {
        dtype: DT_FLOAT
        tensor_shape {
        }
        float_val: 0.0
      }
    }
  }
}
node {
  name: "deep_cluster_gn/SA_windclass/SA_lnorm2_SA_windclass/Fill_1"
  op: "Fill"
  input: "deep_cluster_gn/SA_windclass/SA_lnorm2_SA_windclass/Fill_1/dims"
  input: "deep_cluster_gn/SA_windclass/SA_lnorm2_SA_windclass/Const_1"
  attr {
    key: "T"
    value {
      type: DT_FLOAT
    }
  }
  attr {
    key: "index_type"
    value {
      type: DT_INT32
    }
  }
}
node {
  name: "deep_cluster_gn/SA_windclass/SA_lnorm2_SA_windclass/Const_2"
  op: "Const"
  attr {
    key: "dtype"
    value {
      type: DT_FLOAT
    }
  }
  attr {
    key: "value"
    value {
      tensor {
        dtype: DT_FLOAT
        tensor_shape {
          dim {
          }
        }
      }
    }
  }
}
node {
  name: "deep_cluster_gn/SA_windclass/SA_lnorm2_SA_windclass/Const_3"
  op: "Const"
  attr {
    key: "dtype"
    value {
      type: DT_FLOAT
    }
  }
  attr {
    key: "value"
    value {
      tensor {
        dtype: DT_FLOAT
        tensor_shape {
          dim {
          }
        }
      }
    }
  }
}
node {
  name: "deep_cluster_gn/SA_windclass/SA_lnorm2_SA_windclass/FusedBatchNormV3"
  op: "FusedBatchNormV3"
  input: "deep_cluster_gn/SA_windclass/SA_lnorm2_SA_windclass/Reshape"
  input: "deep_cluster_gn/SA_windclass/SA_lnorm2_SA_windclass/Fill"
  input: "deep_cluster_gn/SA_windclass/SA_lnorm2_SA_windclass/Fill_1"
  input: "deep_cluster_gn/SA_windclass/SA_lnorm2_SA_windclass/Const_2"
  input: "deep_cluster_gn/SA_windclass/SA_lnorm2_SA_windclass/Const_3"
  attr {
    key: "T"
    value {
      type: DT_FLOAT
    }
  }
  attr {
    key: "U"
    value {
      type: DT_FLOAT
    }
  }
  attr {
    key: "data_format"
    value {
      s: "NCHW"
    }
  }
  attr {
    key: "epsilon"
    value {
      f: 0.0010000000474974513
    }
  }
  attr {
    key: "exponential_avg_factor"
    value {
      f: 1.0
    }
  }
  attr {
    key: "is_training"
    value {
      b: true
    }
  }
}
node {
  name: "deep_cluster_gn/SA_windclass/SA_lnorm2_SA_windclass/Reshape_1"
  op: "Reshape"
  input: "deep_cluster_gn/SA_windclass/SA_lnorm2_SA_windclass/FusedBatchNormV3"
  input: "deep_cluster_gn/SA_windclass/SA_lnorm2_SA_windclass/Shape"
  attr {
    key: "T"
    value {
      type: DT_FLOAT
    }
  }
  attr {
    key: "Tshape"
    value {
      type: DT_INT32
    }
  }
}
node {
  name: "deep_cluster_gn/SA_windclass/SA_lnorm2_SA_windclass/mul_3/ReadVariableOp/resource"
  op: "Const"
  attr {
    key: "dtype"
    value {
      type: DT_FLOAT
    }
  }
  attr {
    key: "value"
    value {
      tensor {
        dtype: DT_FLOAT
        tensor_shape {
          dim {
            size: 64
          }
        }
        tensor_content: "…"
      }
    }
  }
}
node {
  name: "deep_cluster_gn/SA_windclass/SA_lnorm2_SA_windclass/mul_3/ReadVariableOp"
  op: "Identity"
  input: "deep_cluster_gn/SA_windclass/SA_lnorm2_SA_windclass/mul_3/ReadVariableOp/resource"
  attr {
    key: "T"
    value {
      type: DT_FLOAT
    }
  }
}
node {
  name: "deep_cluster_gn/SA_windclass/SA_lnorm2_SA_windclass/mul_3"
  op: "Mul"
  input: "deep_cluster_gn/SA_windclass/SA_lnorm2_SA_windclass/Reshape_1"
  input: "deep_cluster_gn/SA_windclass/SA_lnorm2_SA_windclass/mul_3/ReadVariableOp"
  attr {
    key: "T"
    value {
      type: DT_FLOAT
    }
  }
}
node {
  name: "deep_cluster_gn/SA_windclass/SA_lnorm2_SA_windclass/add/ReadVariableOp/resource"
  op: "Const"
  attr {
    key: "dtype"
    value {
      type: DT_FLOAT
    }
  }
  attr {
    key: "value"
    value {
      tensor {
        dtype: DT_FLOAT
        tensor_shape {
          dim {
            size: 64
          }
        }
        tensor_content: "…"
      }
    }
  }
}
node {
  name: "deep_cluster_gn/SA_windclass/SA_lnorm2_SA_windclass/add/ReadVariableOp"
  op: "Identity"
  input: "deep_cluster_gn/SA_windclass/SA_lnorm2_SA_windclass/add/ReadVariableOp/resource"
  attr {
    key: "T"
    value {
      type: DT_FLOAT
    }
  }
}
node {
  name: "deep_cluster_gn/SA_windclass/SA_lnorm2_SA_windclass/add"
  op: "AddV2"
  input: "deep_cluster_gn/SA_windclass/SA_lnorm2_SA_windclass/mul_3"
  input: "deep_cluster_gn/SA_windclass/SA_lnorm2_SA_windclass/add/ReadVariableOp"
  attr {
    key: "T"
    value {
      type: DT_FLOAT
    }
  }
}
node {
  name: "deep_cluster_gn/SA_windclass/mul_2"
  op: "Mul"
  input: "deep_cluster_gn/SA_windclass/SA_lnorm2_SA_windclass/add"
  input: "deep_cluster_gn/SA_windclass/strided_slice_1"
  attr {
    key: "T"
    value {
      type: DT_FLOAT
    }
  }
}
node {
  name: "deep_cluster_gn/SA_windclass/Sum/reduction_indices"
  op: "Const"
  attr {
    key: "dtype"
    value {
      type: DT_INT32
    }
  }
  attr {
    key: "value"
    value {
      tensor {
        dtype: DT_INT32
        tensor_shape {
        }
        int_val: -2
      }
    }
  }
}
node {
  name: "deep_cluster_gn/SA_windclass/Sum"
  op: "Sum"
  input: "deep_cluster_gn/SA_windclass/mul_2"
  input: "deep_cluster_gn/SA_windclass/Sum/reduction_indices"
  attr {
    key: "T"
    value {
      type: DT_FLOAT
    }
  }
  attr {
    key: "Tidx"
    value {
      type: DT_INT32
    }
  }
  attr {
    key: "keep_dims"
    value {
      b: false
    }
  }
}
node {
  name: "deep_cluster_gn/concatenate_1/concat/axis"
  op: "Const"
  attr {
    key: "dtype"
    value {
      type: DT_INT32
    }
  }
  attr {
    key: "value"
    value {
      tensor {
        dtype: DT_INT32
        tensor_shape {
        }
        int_val: 1
      }
    }
  }
}
node {
  name: "deep_cluster_gn/concatenate_1/concat"
  op: "ConcatV2"
  input: "input_2"
  input: "deep_cluster_gn/SA_windclass/Sum"
  input: "deep_cluster_gn/concatenate_1/concat/axis"
  attr {
    key: "N"
    value {
      i: 2
    }
  }
  attr {
    key: "T"
    value {
      type: DT_FLOAT
    }
  }
  attr {
    key: "Tidx"
    value {
      type: DT_INT32
    }
  }
}
node {
  name: "deep_cluster_gn/SA_windclass_layernorm/Shape"
  op: "Shape"
  input: "deep_cluster_gn/concatenate_1/concat"
  attr {
    key: "T"
    value {
      type: DT_FLOAT
    }
  }
  attr {
    key: "out_type"
    value {
      type: DT_INT32
    }
  }
}
node {
  name: "deep_cluster_gn/SA_windclass_layernorm/strided_slice/stack"
  op: "Const"
  attr {
    key: "dtype"
    value {
      type: DT_INT32
    }
  }
  attr {
    key: "value"
    value {
      tensor {
        dtype: DT_INT32
        tensor_shape {
          dim {
            size: 1
          }
        }
        int_val: 0
      }
    }
  }
}
node {
  name: "deep_cluster_gn/SA_windclass_layernorm/strided_slice/stack_1"
  op: "Const"
  attr {
    key: "dtype"
    value {
      type: DT_INT32
    }
  }
  attr {
    key: "value"
    value {
      tensor {
        dtype: DT_INT32
        tensor_shape {
          dim {
            size: 1
          }
        }
        int_val: 1
      }
    }
  }
}
node {
  name: "deep_cluster_gn/SA_windclass_layernorm/strided_slice/stack_2"
  op: "Const"
  attr {
    key: "dtype"
    value {
      type: DT_INT32
    }
  }
  attr {
    key: "value"
    value {
      tensor {
        dtype: DT_INT32
        tensor_shape {
          dim {
            size: 1
          }
        }
        int_val: 1
      }
    }
  }
}
node {
  name: "deep_cluster_gn/SA_windclass_layernorm/strided_slice"
  op: "StridedSlice"
  input: "deep_cluster_gn/SA_windclass_layernorm/Shape"
  input: "deep_cluster_gn/SA_windclass_layernorm/strided_slice/stack"
  input: "deep_cluster_gn/SA_windclass_layernorm/strided_slice/stack_1"
  input: "deep_cluster_gn/SA_windclass_layernorm/strided_slice/stack_2"
  attr {
    key: "Index"
    value {
      type: DT_INT32
    }
  }
  attr {
    key: "T"
    value {
      type: DT_INT32
    }
  }
  attr {
    key: "begin_mask"
    value {
      i: 0
    }
  }
  attr {
    key: "ellipsis_mask"
    value {
      i: 0
    }
  }
  attr {
    key: "end_mask"
    value {
      i: 0
    }
  }
  attr {
    key: "new_axis_mask"
    value {
      i: 0
    }
  }
  attr {
    key: "shrink_axis_mask"
    value {
      i: 1
    }
  }
}
node {
  name: "deep_cluster_gn/SA_windclass_layernorm/mul"
  op: "Mul"
  input: "deep_cluster_gn/SA_windclass_layernorm/mul/x"
  input: "deep_cluster_gn/SA_windclass_layernorm/strided_slice"
  attr {
    key: "T"
    value {
      type: DT_INT32
    }
  }
}
node {
  name: "deep_cluster_gn/SA_windclass_layernorm/mul_1/x"
  op: "Const"
  attr {
    key: "dtype"
    value {
      type: DT_INT32
    }
  }
  attr {
    key: "value"
    value {
      tensor {
        dtype: DT_INT32
        tensor_shape {
        }
        int_val: 1
      }
    }
  }
}
node {
  name: "deep_cluster_gn/SA_windclass_layernorm/strided_slice_1/stack"
  op: "Const"
  attr {
    key: "dtype"
    value {
      type: DT_INT32
    }
  }
  attr {
    key: "value"
    value {
      tensor {
        dtype: DT_INT32
        tensor_shape {
          dim {
            size: 1
          }
        }
        int_val: 1
      }
    }
  }
}
node {
  name: "deep_cluster_gn/SA_windclass_layernorm/strided_slice_1/stack_1"
  op: "Const"
  attr {
    key: "dtype"
    value {
      type: DT_INT32
    }
  }
  attr {
    key: "value"
    value {
      tensor {
        dtype: DT_INT32
        tensor_shape {
          dim {
            size: 1
          }
        }
        int_val: 2
      }
    }
  }
}
node {
  name: "deep_cluster_gn/SA_windclass_layernorm/strided_slice_1/stack_2"
  op: "Const"
  attr {
    key: "dtype"
    value {
      type: DT_INT32
    }
  }
  attr {
    key: "value"
    value {
      tensor {
        dtype: DT_INT32
        tensor_shape {
          dim {
            size: 1
          }
        }
        int_val: 1
      }
    }
  }
}
node {
  name: "deep_cluster_gn/SA_windclass_layernorm/strided_slice_1"
  op: "StridedSlice"
  input: "deep_cluster_gn/SA_windclass_layernorm/Shape"
  input: "deep_cluster_gn/SA_windclass_layernorm/strided_slice_1/stack"
  input: "deep_cluster_gn/SA_windclass_layernorm/strided_slice_1/stack_1"
  input: "deep_cluster_gn/SA_windclass_layernorm/strided_slice_1/stack_2"
  attr {
    key: "Index"
    value {
      type: DT_INT32
    }
  }
  attr {
    key: "T"
    value {
      type: DT_INT32
    }
  }
  attr {
    key: "begin_mask"
    value {
      i: 0
    }
  }
  attr {
    key: "ellipsis_mask"
    value {
      i: 0
    }
  }
  attr {
    key: "end_mask"
    value {
      i: 0
    }
  }
  attr {
    key: "new_axis_mask"
    value {
      i: 0
    }
  }
  attr {
    key: "shrink_axis_mask"
    value {
      i: 1
    }
  }
}
node {
  name: "deep_cluster_gn/SA_windclass_layernorm/mul_1"
  op: "Mul"
  input: "deep_cluster_gn/SA_windclass_layernorm/mul_1/x"
  input: "deep_cluster_gn/SA_windclass_layernorm/strided_slice_1"
  attr {
    key: "T"
    value {
      type: DT_INT32
    }
  }
}
node {
  name: "deep_cluster_gn/SA_windclass_layernorm/Reshape/shape/3"
  op: "Const"
  attr {
    key: "dtype"
    value {
      type: DT_INT32
    }
  }
  attr {
    key: "value"
    value {
      tensor {
        dtype: DT_INT32
        tensor_shape {
        }
        int_val: 1
      }
    }
  }
}
node {
  name: "deep_cluster_gn/SA_windclass_layernorm/Reshape/shape"
  op: "Pack"
  input: "deep_cluster_gn/SA_windclass_layernorm/Reshape/shape/0"
  input: "deep_cluster_gn/SA_windclass_layernorm/mul"
  input: "deep_cluster_gn/SA_windclass_layernorm/mul_1"
  input: "deep_cluster_gn/SA_windclass_layernorm/Reshape/shape/3"
  attr {
    key: "N"
    value {
      i: 4
    }
  }
  attr {
    key: "T"
    value {
      type: DT_INT32
    }
  }
  attr {
    key: "axis"
    value {
      i: 0
    }
  }
}
node {
  name: "deep_cluster_gn/SA_windclass_layernorm/Reshape"
  op: "Reshape"
  input: "deep_cluster_gn/concatenate_1/concat"
  input: "deep_cluster_gn/SA_windclass_layernorm/Reshape/shape"
  attr {
    key: "T"
    value {
      type: DT_FLOAT
    }
  }
  attr {
    key: "Tshape"
    value {
      type: DT_INT32
    }
  }
}
node {
  name: "deep_cluster_gn/SA_windclass_layernorm/Fill/dims"
  op: "Pack"
  input: "deep_cluster_gn/SA_windclass_layernorm/mul"
  attr {
    key: "N"
    value {
      i: 1
    }
  }
  attr {
    key: "T"
    value {
      type: DT_INT32
    }
  }
  attr {
    key: "axis"
    value {
      i: 0
    }
  }
}
node {
  name: "deep_cluster_gn/SA_windclass_layernorm/Const"
  op: "Const"
  attr {
    key: "dtype"
    value {
      type: DT_FLOAT
    }
  }
  attr {
    key: "value"
    value {
      tensor {
        dtype: DT_FLOAT
        tensor_shape {
        }
        float_val: 1.0
      }
    }
  }
}
node {
  name: "deep_cluster_gn/SA_windclass_layernorm/Fill"
  op: "Fill"
  input: "deep_cluster_gn/SA_windclass_layernorm/Fill/dims"
  input: "deep_cluster_gn/SA_windclass_layernorm/Const"
  attr {
    key: "T"
    value {
      type: DT_FLOAT
    }
  }
  attr {
    key: "index_type"
    value {
      type: DT_INT32
    }
  }
}
node {
  name: "deep_cluster_gn/SA_windclass_layernorm/Fill_1/dims"
  op: "Pack"
  input: "deep_cluster_gn/SA_windclass_layernorm/mul"
  attr {
    key: "N"
    value {
      i: 1
    }
  }
  attr {
    key: "T"
    value {
      type: DT_INT32
    }
  }
  attr {
    key: "axis"
    value {
      i: 0
    }
  }
}
node {
  name: "deep_cluster_gn/SA_windclass_layernorm/Const_1"
  op: "Const"
  attr {
    key: "dtype"
    value {
      type: DT_FLOAT
    }
  }
  attr {
    key: "value"
    value {
      tensor {
        dtype: DT_FLOAT
        tensor_shape {
        }
        float_val: 0.0
      }
    }
  }
}
node {
  name: "deep_cluster_gn/SA_windclass_layernorm/Fill_1"
  op: "Fill"
  input: "deep_cluster_gn/SA_windclass_layernorm/Fill_1/dims"
  input: "deep_cluster_gn/SA_windclass_layernorm/Const_1"
  attr {
    key: "T"
    value {
      type: DT_FLOAT
    }
  }
  attr {
    key: "index_type"
    value {
      type: DT_INT32
    }
  }
}
node {
  name: "deep_cluster_gn/SA_windclass_layernorm/Const_2"
  op: "Const"
  attr {
    key: "dtype"
    value {
      type: DT_FLOAT
    }
  }
  attr {
    key: "value"
    value {
      tensor {
        dtype: DT_FLOAT
        tensor_shape {
          dim {
          }
        }
      }
    }
  }
}
node {
  name: "deep_cluster_gn/SA_windclass_layernorm/Const_3"
  op: "Const"
  attr {
    key: "dtype"
    value {
      type: DT_FLOAT
    }
  }
  attr {
    key: "value"
    value {
      tensor {
        dtype: DT_FLOAT
        tensor_shape {
          dim {
          }
        }
      }
    }
  }
}
node {
  name: "deep_cluster_gn/SA_windclass_layernorm/FusedBatchNormV3"
  op: "FusedBatchNormV3"
  input: "deep_cluster_gn/SA_windclass_layernorm/Reshape"
  input: "deep_cluster_gn/SA_windclass_layernorm/Fill"
  input: "deep_cluster_gn/SA_windclass_layernorm/Fill_1"
  input: "deep_cluster_gn/SA_windclass_layernorm/Const_2"
  input: "deep_cluster_gn/SA_windclass_layernorm/Const_3"
  attr {
    key: "T"
    value {
      type: DT_FLOAT
    }
  }
  attr {
    key: "U"
    value {
      type: DT_FLOAT
    }
  }
  attr {
    key: "data_format"
    value {
      s: "NCHW"
    }
  }
  attr {
    key: "epsilon"
    value {
      f: 0.0010000000474974513
    }
  }
  attr {
    key: "exponential_avg_factor"
    value {
      f: 1.0
    }
  }
  attr {
    key: "is_training"
    value {
      b: true
    }
  }
}
node {
  name: "deep_cluster_gn/SA_windclass_layernorm/Reshape_1"
  op: "Reshape"
  input: "deep_cluster_gn/SA_windclass_layernorm/FusedBatchNormV3"
  input: "deep_cluster_gn/SA_windclass_layernorm/Shape"
  attr {
    key: "T"
    value {
      type: DT_FLOAT
    }
  }
  attr {
    key: "Tshape"
    value {
      type: DT_INT32
    }
  }
}
node {
  name: "deep_cluster_gn/SA_windclass_layernorm/mul_2/ReadVariableOp/resource"
  op: "Const"
  attr {
    key: "dtype"
    value {
      type: DT_FLOAT
    }
  }
  attr {
    key: "value"
    value {
      tensor {
        dtype: DT_FLOAT
        tensor_shape {
          dim {
            size: 82
          }
        }
        tensor_content: "…"
      }
    }
  }
}
node {
  name: "deep_cluster_gn/SA_windclass_layernorm/mul_2/ReadVariableOp"
  op: "Identity"
  input: "deep_cluster_gn/SA_windclass_layernorm/mul_2/ReadVariableOp/resource"
  attr {
    key: "T"
    value {
      type: DT_FLOAT
    }
  }
}
node {
  name: "deep_cluster_gn/SA_windclass_layernorm/mul_2"
  op: "Mul"
  input: "deep_cluster_gn/SA_windclass_layernorm/Reshape_1"
  input: "deep_cluster_gn/SA_windclass_layernorm/mul_2/ReadVariableOp"
  attr {
    key: "T"
    value {
      type: DT_FLOAT
    }
  }
}
node {
  name: "deep_cluster_gn/SA_windclass_layernorm/add/ReadVariableOp/resource"
  op: "Const"
  attr {
    key: "dtype"
    value {
      type: DT_FLOAT
    }
  }
  attr {
    key: "value"
    value {
      tensor {
        dtype: DT_FLOAT
        tensor_shape {
          dim {
            size: 82
          }
        }
        tensor_content: "…"
      }
    }
  }
}
node {
  name: "deep_cluster_gn/SA_windclass_layernorm/add/ReadVariableOp"
  op: "Identity"
  input: "deep_cluster_gn/SA_windclass_layernorm/add/ReadVariableOp/resource"
  attr {
    key: "T"
    value {
      type: DT_FLOAT
    }
  }
}
node {
  name: "deep_cluster_gn/SA_windclass_layernorm/add"
  op: "AddV2"
  input: "deep_cluster_gn/SA_windclass_layernorm/mul_2"
  input: "deep_cluster_gn/SA_windclass_layernorm/add/ReadVariableOp"
  attr {
    key: "T"
    value {
      type: DT_FLOAT
    }
  }
}
node {
  name: "deep_cluster_gn/dropout_28/Identity"
  op: "Identity"
  input: "deep_cluster_gn/SA_windclass_layernorm/add"
  attr {
    key: "T"
    value {
      type: DT_FLOAT
    }
  }
}
node {
  name: "deep_cluster_gn/dense_windclass/dense_windclass_0/MatMul/ReadVariableOp/resource"
  op: "Const"
  attr {
    key: "dtype"
    value {
      type: DT_FLOAT
    }
  }
  attr {
    key: "value"
    value {
      tensor {
        dtype: DT_FLOAT
        tensor_shape {
          dim {
            size: 82
          }
          dim {
            size: 128
          }
        }
        tensor_content: "…"
      }
    }
  }
}
node {
  name: "deep_cluster_gn/dense_windclass/dense_windclass_0/MatMul/ReadVariableOp"
  op: "Identity"
  input: "deep_cluster_gn/dense_windclass/dense_windclass_0/MatMul/ReadVariableOp/resource"
  attr {
    key: "T"
    value {
      type: DT_FLOAT
    }
  }
}
node {
  name: "deep_cluster_gn/dense_windclass/dense_windclass_0/MatMul"
  op: "MatMul"
  input: "deep_cluster_gn/dropout_28/Identity"
  input: "deep_cluster_gn/dense_windclass/dense_windclass_0/MatMul/ReadVariableOp"
  attr {
    key: "T"
    value {
      type: DT_FLOAT
    }
  }
  attr {
    key: "transpose_a"
    value {
      b: false
    }
  }
  attr {
    key: "transpose_b"
    value {
      b: false
    }
  }
}
node {
  name: "deep_cluster_gn/dense_windclass/dense_windclass_0/BiasAdd/ReadVariableOp/resource"
  op: "Const"
  attr {
    key: "dtype"
    value {
      type: DT_FLOAT
    }
  }
  attr {
    key: "value"
    value {
      tensor {
        dtype: DT_FLOAT
        tensor_shape {
          dim {
            size: 128
          }
        }
        tensor_content: "…"
      }
    }
  }
}
node {
  name: "deep_cluster_gn/dense_windclass/dense_windclass_0/BiasAdd/ReadVariableOp"
  op: "Identity"
  input: "deep_cluster_gn/dense_windclass/dense_windclass_0/BiasAdd/ReadVariableOp/resource"
  attr {
    key: "T"
    value {
      type: DT_FLOAT
    }
  }
}
node {
  name: "deep_cluster_gn/dense_windclass/dense_windclass_0/BiasAdd"
  op: "BiasAdd"
  input: "deep_cluster_gn/dense_windclass/dense_windclass_0/MatMul"
  input: "deep_cluster_gn/dense_windclass/dense_windclass_0/BiasAdd/ReadVariableOp"
  attr {
    key: "T"
    value {
      type: DT_FLOAT
    }
  }
  attr {
    key: "data_format"
    value {
      s: "NHWC"
    }
  }
}
node {
  name: "deep_cluster_gn/dense_windclass/dense_windclass_0/Elu"
  op: "Elu"
  input: "deep_cluster_gn/dense_windclass/dense_windclass_0/BiasAdd"
  attr {
    key: "T"
    value {
      type: DT_FLOAT
    }
  }
}
node {
  name: "deep_cluster_gn/dense_windclass/dropout_17/Identity"
  op: "Identity"
  input: "deep_cluster_gn/dense_windclass/dense_windclass_0/Elu"
  attr {
    key: "T"
    value {
      type: DT_FLOAT
    }
  }
}
node {
  name: "deep_cluster_gn/dense_windclass/dense_windclass_1/MatMul/ReadVariableOp/resource"
  op: "Const"
  attr {
    key: "dtype"
    value {
      type: DT_FLOAT
    }
  }
  attr {
    key: "value"
    value {
      tensor {
        dtype: DT_FLOAT
        tensor_shape {
          dim {
            size: 128
          }
          dim {
            size: 64
          }
        }
        tensor_content: "…"
      }
    }
  }
}
node {
  name: "deep_cluster_gn/dense_windclass/dense_windclass_1/MatMul/ReadVariableOp"
  op: "Identity"
  input: "deep_cluster_gn/dense_windclass/dense_windclass_1/MatMul/ReadVariableOp/resource"
  attr {
    key: "T"
    value {
      type: DT_FLOAT
    }
  }
}
node {
  name: "deep_cluster_gn/dense_windclass/dense_windclass_1/MatMul"
  op: "MatMul"
  input: "deep_cluster_gn/dense_windclass/dropout_17/Identity"
  input: "deep_cluster_gn/dense_windclass/dense_windclass_1/MatMul/ReadVariableOp"
  attr {
    key: "T"
    value {
      type: DT_FLOAT
    }
  }
  attr {
    key: "transpose_a"
    value {
      b: false
    }
  }
  attr {
    key: "transpose_b"
    value {
      b: false
    }
  }
}
node {
  name: "deep_cluster_gn/dense_windclass/dense_windclass_1/BiasAdd/ReadVariableOp/resource"
  op: "Const"
  attr {
    key: "dtype"
    value {
      type: DT_FLOAT
    }
  }
  attr {
    key: "value"
    value {
      tensor {
        dtype: DT_FLOAT
        tensor_shape {
          dim {
            size: 64
          }
        }
        tensor_content: "…"
      }
    }
  }
}
node {
  name: "deep_cluster_gn/dense_windclass/dense_windclass_1/BiasAdd/ReadVariableOp"
  op: "Identity"
  input: "deep_cluster_gn/dense_windclass/dense_windclass_1/BiasAdd/ReadVariableOp/resource"
  attr {
    key: "T"
    value {
      type: DT_FLOAT
    }
  }
}
node {
  name: "deep_cluster_gn/dense_windclass/dense_windclass_1/BiasAdd"
  op: "BiasAdd"
  input: "deep_cluster_gn/dense_windclass/dense_windclass_1/MatMul"
  input: "deep_cluster_gn/dense_windclass/dense_windclass_1/BiasAdd/ReadVariableOp"
  attr {
    key: "T"
    value {
      type: DT_FLOAT
    }
  }
  attr {
    key: "data_format"
    value {
      s: "NHWC"
    }
  }
}
node {
  name: "deep_cluster_gn/dense_windclass/dense_windclass_1/Elu"
  op: "Elu"
  input: "deep_cluster_gn/dense_windclass/dense_windclass_1/BiasAdd"
  attr {
    key: "T"
    value {
      type: DT_FLOAT
    }
  }
}
node {
  name: "deep_cluster_gn/dense_windclass/dropout_18/Identity"
  op: "Identity"
  input: "deep_cluster_gn/dense_windclass/dense_windclass_1/Elu"
  attr {
    key: "T"
    value {
      type: DT_FLOAT
    }
  }
}
node {
  name: "deep_cluster_gn/dense_windclass/dense_windclass_2/MatMul/ReadVariableOp/resource"
  op: "Const"
  attr {
    key: "dtype"
    value {
      type: DT_FLOAT
    }
  }
  attr {
    key: "value"
    value {
      tensor {
        dtype: DT_FLOAT
        tensor_shape {
          dim {
            size: 64
          }
          dim {
            size: 64
          }
        }
        tensor_content: "…"
      }
    }
  }
}
node {
  name: "deep_cluster_gn/dense_windclass/dense_windclass_2/MatMul/ReadVariableOp"
  op: "Identity"
  input: "deep_cluster_gn/dense_windclass/dense_windclass_2/MatMul/ReadVariableOp/resource"
  attr {
    key: "T"
    value {
      type: DT_FLOAT
    }
  }
}
node {
  name: "deep_cluster_gn/dense_windclass/dense_windclass_2/MatMul"
  op: "MatMul"
  input: "deep_cluster_gn/dense_windclass/dropout_18/Identity"
  input: "deep_cluster_gn/dense_windclass/dense_windclass_2/MatMul/ReadVariableOp"
  attr {
    key: "T"
    value {
      type: DT_FLOAT
    }
  }
  attr {
    key: "transpose_a"
    value {
      b: false
    }
  }
  attr {
    key: "transpose_b"
    value {
      b: false
    }
  }
}
node {
  name: "deep_cluster_gn/dense_windclass/dense_windclass_2/BiasAdd/ReadVariableOp/resource"
  op: "Const"
  attr {
    key: "dtype"
    value {
      type: DT_FLOAT
    }
  }
  attr {
    key: "value"
    value {
      tensor {
        dtype: DT_FLOAT
        tensor_shape {
          dim {
            size: 64
          }
        }
        tensor_content: "…"
      }
    }
  }
}
node {
  name: "deep_cluster_gn/dense_windclass/dense_windclass_2/BiasAdd/ReadVariableOp"
  op: "Identity"
  input: "deep_cluster_gn/dense_windclass/dense_windclass_2/BiasAdd/ReadVariableOp/resource"
  attr {
    key: "T"
    value {
      type: DT_FLOAT
    }
  }
}
node {
  name: "deep_cluster_gn/dense_windclass/dense_windclass_2/BiasAdd"
  op: "BiasAdd"
  input: "deep_cluster_gn/dense_windclass/dense_windclass_2/MatMul"
  input: "deep_cluster_gn/dense_windclass/dense_windclass_2/BiasAdd/ReadVariableOp"
  attr {
    key: "T"
    value {
      type: DT_FLOAT
    }
  }
  attr {
    key: "data_format"
    value {
      s: "NHWC"
    }
  }
}
node {
  name: "deep_cluster_gn/dense_windclass/dense_windclass_2/Elu"
  op: "Elu"
  input: "deep_cluster_gn/dense_windclass/dense_windclass_2/BiasAdd"
  attr {
    key: "T"
    value {
      type: DT_FLOAT
    }
  }
}
node {
  name: "deep_cluster_gn/dense_windclass/dropout_19/Identity"
  op: "Identity"
  input: "deep_cluster_gn/dense_windclass/dense_windclass_2/Elu"
  attr {
    key: "T"
    value {
      type: DT_FLOAT
    }
  }
}
node {
  name: "deep_cluster_gn/dense_windclass/dense_windclass_3/MatMul/ReadVariableOp/resource"
  op: "Const"
  attr {
    key: "dtype"
    value {
      type: DT_FLOAT
    }
  }
  attr {
    key: "value"
    value {
      tensor {
        dtype: DT_FLOAT
        tensor_shape {
          dim {
            size: 64
          }
          dim {
            size: 3
          }
        }
        tensor_content: "…"
      }
    }
  }
}
node {
  name: "deep_cluster_gn/dense_windclass/dense_windclass_3/MatMul/ReadVariableOp"
  op: "Identity"
  input: "deep_cluster_gn/dense_windclass/dense_windclass_3/MatMul/ReadVariableOp/resource"
  attr {
    key: "T"
    value {
      type: DT_FLOAT
    }
  }
}
node {
  name: "deep_cluster_gn/dense_windclass/dense_windclass_3/MatMul"
  op: "MatMul"
  input: "deep_cluster_gn/dense_windclass/dropout_19/Identity"
  input: "deep_cluster_gn/dense_windclass/dense_windclass_3/MatMul/ReadVariableOp"
  attr {
    key: "T"
    value {
      type: DT_FLOAT
    }
  }
  attr {
    key: "transpose_a"
    value {
      b: false
    }
  }
  attr {
    key: "transpose_b"
    value {
      b: false
    }
  }
}
node {
  name: "deep_cluster_gn/dense_windclass/dense_windclass_3/BiasAdd/ReadVariableOp/resource"
  op: "Const"
  attr {
    key: "dtype"
    value {
      type: DT_FLOAT
    }
  }
  attr {
    key: "value"
    value {
      tensor {
        dtype: DT_FLOAT
        tensor_shape {
          dim {
            size: 3
          }
        }
        tensor_content: "bl\235\301\nn]=G\203\313<"
      }
    }
  }
}
node {
  name: "deep_cluster_gn/dense_windclass/dense_windclass_3/BiasAdd/ReadVariableOp"
  op: "Identity"
  input: "deep_cluster_gn/dense_windclass/dense_windclass_3/BiasAdd/ReadVariableOp/resource"
  attr {
    key: "T"
    value {
      type: DT_FLOAT
    }
  }
}
node {
  name: "deep_cluster_gn/dense_windclass/dense_windclass_3/BiasAdd"
  op: "BiasAdd"
  input: "deep_cluster_gn/dense_windclass/dense_windclass_3/MatMul"
  input: "deep_cluster_gn/dense_windclass/dense_windclass_3/BiasAdd/ReadVariableOp"
  attr {
    key: "T"
    value {
      type: DT_FLOAT
    }
  }
  attr {
    key: "data_format"
    value {
      s: "NHWC"
    }
  }
}
node {
  name: "wind_class"
  op: "Identity"
  input: "deep_cluster_gn/dense_windclass/dense_windclass_3/BiasAdd"
  attr {
    key: "T"
    value {
      type: DT_FLOAT
    }
  }
}
versions {
  producer: 440
}
