N events ele:  9839344
N events gamma:  9515603
Weight  14.976915114479977
N. samples: 19031206
 * Serving Flask app "sherpa.app.app" (lazy loading)
 * Environment: production
   WARNING: This is a development server. Do not use it in a production deployment.
   Use a production WSGI server instead.
 * Debug mode: on
>>>>> Working on trial:  1
Model: "sequential_1"
_________________________________________________________________
Layer (type)                 Output Shape              Param #   
=================================================================
dense_1 (Dense)              (None, 212)               5300      
_________________________________________________________________
dropout_1 (Dropout)          (None, 212)               0         
_________________________________________________________________
dense_2 (Dense)              (None, 212)               45156     
_________________________________________________________________
dropout_2 (Dropout)          (None, 212)               0         
_________________________________________________________________
dense_3 (Dense)              (None, 212)               45156     
_________________________________________________________________
dropout_3 (Dropout)          (None, 212)               0         
_________________________________________________________________
dense_4 (Dense)              (None, 1)                 213       
=================================================================
Total params: 95,825
Trainable params: 95,825
Non-trainable params: 0
_________________________________________________________________

Epoch 00001: val_loss improved from inf to 1.41271, saving model to /storage/ECAL/deepcluster/models/bayesian_opt_v3/model_1/model.hd5

Epoch 00002: val_loss improved from 1.41271 to 1.29750, saving model to /storage/ECAL/deepcluster/models/bayesian_opt_v3/model_1/model.hd5
…
{'val_loss': [1.412710645876122, 1.297503547898502, 1.4499531855369008, 1.3811386913022259, 1.4401877000453709], 'val_auc_1': [0.957518458366394, 0.951640248298645, 0.9561488032341003, 0.9488539099693298, 0.9463275074958801], 'loss': [1.7170411746219894, 1.4321166804974808, 1.4349483621605994, 1.4319108747126252, 1.4298228345400998], 'auc_1': [0.9174591, 0.9170542, 0.9148759, 0.9129414, 0.91332567]}
>>>>> Working on trial:  2
Model: "sequential_2"
_________________________________________________________________
Layer (type)                 Output Shape              Param #   
=================================================================
dense_5 (Dense)              (None, 496)               12400     
_________________________________________________________________
dropout_4 (Dropout)          (None, 496)               0         
_________________________________________________________________
dense_6 (Dense)              (None, 496)               246512    
_________________________________________________________________
dropout_5 (Dropout)          (None, 496)               0         
_________________________________________________________________
dense_7 (Dense)              (None, 496)               246512    
_________________________________________________________________
dropout_6 (Dropout)          (None, 496)               0         
_________________________________________________________________
dense_8 (Dense)              (None, 496)               246512    
_________________________________________________________________
dropout_7 (Dropout)          (None, 496)               0         
_________________________________________________________________
dense_9 (Dense)              (None, 1)                 497       
=================================================================
Total params: 752,433
Trainable params: 752,433
Non-trainable params: 0
_________________________________________________________________

Epoch 00001: val_loss improved from inf to 0.91916, saving model to /storage/ECAL/deepcluster/models/bayesian_opt_v3/model_2/model.hd5

Epoch 00002: val_loss did not improve from 0.91916

…
{'val_loss': [0.9191587976474713, 1.1650376431512677, 0.8494939495463106, 1.1219712342268522, 1.0158053441936417], 'val_auc_2': [0.9685478210449219, 0.9474842548370361, 0.9723707437515259, 0.9594860076904297, 0.9767358303070068], 'loss': [1.0809550039080646, 0.9288390840212423, 0.9279086852165429, 0.9250204548403199, 0.9240681596658268], 'auc_2': [0.9540517, 0.95705706, 0.95691615, 0.95705724, 0.9570406]}
>>>>> Working on trial:  3
Model: "sequential_3"
_________________________________________________________________
Layer (type)                 Output Shape              Param #   
=================================================================
dense_10 (Dense)             (None, 81)                2025      
_________________________________________________________________
dropout_8 (Dropout)          (None, 81)                0         
_________________________________________________________________
dense_11 (Dense)             (None, 81)                6642      
_________________________________________________________________
dropout_9 (Dropout)          (None, 81)                0         
_________________________________________________________________
dense_12 (Dense)             (None, 1)                 82        
=================================================================
Total params: 8,749
Trainable params: 8,749
Non-trainable params: 0
_________________________________________________________________

Epoch 00001: val_loss improved from inf to 0.61114, saving model to /storage/ECAL/deepcluster/models/bayesian_opt_v3/model_3/model.hd5

Epoch 00002: val_loss improved from 0.61114 to 0.51794, saving model to /storage/ECAL/deepcluster/models/bayesian_opt_v3/model_3/model.hd5
…
{'val_loss': [0.6111360807918095, 0.5179363997198336, 0.5255967978813231, 0.5173391543538371, 0.5441468096053226], 'val_auc_3': [0.9772661328315735, 0.9736146330833435, 0.9723029732704163, 0.9723913669586182, 0.9652974009513855], 'loss': [0.478646581978631, 0.4532955374278504, 0.44979200799241337, 0.44873109196474364, 0.4484386891901358], 'auc_3': [0.97214067, 0.97370917, 0.9738783, 0.9738257, 0.97384083]}
>>>>> Working on trial:  4
Model: "sequential_4"
_________________________________________________________________
Layer (type)                 Output Shape              Param #   
=================================================================
dense_13 (Dense)             (None, 420)               10500     
_________________________________________________________________
dropout_10 (Dropout)         (None, 420)               0         
_________________________________________________________________
dense_14 (Dense)             (None, 420)               176820    
_________________________________________________________________
dropout_11 (Dropout)         (None, 420)               0         
_________________________________________________________________
dense_15 (Dense)             (None, 420)               176820    
_________________________________________________________________
dropout_12 (Dropout)         (None, 420)               0         
_________________________________________________________________
dense_16 (Dense)             (None, 1)                 421       
=================================================================
Total params: 364,561
Trainable params: 364,561
Non-trainable params: 0
_________________________________________________________________

Epoch 00001: val_loss improved from inf to 0.60174, saving model to /storage/ECAL/deepcluster/models/bayesian_opt_v3/model_4/model.hd5

Epoch 00002: val_loss did not improve from 0.60174

…
{'val_loss': [0.6017402561804427, 0.6093868323198032, 0.6395897763820805, 0.586311488446655, 0.622442819515254], 'val_auc_4': [0.9663532972335815, 0.9654289484024048, 0.9636914730072021, 0.9648008942604065, 0.9622187614440918], 'loss': [0.7853896549161582, 0.7494258370621889, 0.7644433766105233, 0.7654556229649142, 0.7698173271010106], 'auc_4': [0.938822, 0.9336798, 0.9309389, 0.92961556, 0.92795426]}
>>>>> Working on trial:  5
Model: "sequential_5"
_________________________________________________________________
Layer (type)                 Output Shape              Param #   
=================================================================
dense_17 (Dense)             (None, 409)               10225     
_________________________________________________________________
dropout_13 (Dropout)         (None, 409)               0         
_________________________________________________________________
dense_18 (Dense)             (None, 409)               167690    
_________________________________________________________________
dropout_14 (Dropout)         (None, 409)               0         
_________________________________________________________________
dense_19 (Dense)             (None, 409)               167690    
_________________________________________________________________
dropout_15 (Dropout)         (None, 409)               0         
_________________________________________________________________
dense_20 (Dense)             (None, 409)               167690    
_________________________________________________________________
dropout_16 (Dropout)         (None, 409)               0         
_________________________________________________________________
dense_21 (Dense)             (None, 1)                 410       
=================================================================
Total params: 513,705
Trainable params: 513,705
Non-trainable params: 0
_________________________________________________________________

Epoch 00001: val_loss improved from inf to 0.61072, saving model to /storage/ECAL/deepcluster/models/bayesian_opt_v3/model_5/model.hd5

Epoch 00002: val_loss improved from 0.61072 to 0.52778, saving model to /storage/ECAL/deepcluster/models/bayesian_opt_v3/model_5/model.hd5
…
{'val_loss': [0.6107177078524434, 0.527782987238056, 0.5165747000383991, 0.4086418524897315, 0.5062485334033677], 'val_auc_5': [0.9802786707878113, 0.9792914390563965, 0.9787649512290955, 0.9812902808189392, 0.9806044101715088], 'loss': [0.49772628195595187, 0.44726709934631775, 0.4420504436671751, 0.4398708271547595, 0.4378313839428656], 'auc_5': [0.9747545, 0.975804, 0.9757412, 0.9756428, 0.97558504]}
>>>>> Working on trial:  6
Model: "sequential_6"
_________________________________________________________________
Layer (type)                 Output Shape              Param #   
=================================================================
dense_22 (Dense)             (None, 420)               10500     
_________________________________________________________________
dropout_17 (Dropout)         (None, 420)               0         
_________________________________________________________________
dense_23 (Dense)             (None, 420)               176820    
_________________________________________________________________
dropout_18 (Dropout)         (None, 420)               0         
_________________________________________________________________
dense_24 (Dense)             (None, 1)                 421       
=================================================================
Total params: 187,741
Trainable params: 187,741
Non-trainable params: 0
_________________________________________________________________

Epoch 00001: val_loss improved from inf to 5.17036, saving model to /storage/ECAL/deepcluster/models/bayesian_opt_v3/model_6/model.hd5

Epoch 00002: val_loss did not improve from 5.17036

…
{'val_loss': [5.170359739393682, 5.209964154046967, 5.9062699095454505, 5.294809056409666, 5.66412132338687], 'val_auc_6': [0.9067270159721375, 0.922378659248352, 0.8738389015197754, 0.8888824582099915, 0.9256958365440369], 'loss': [14.257827631450784, 5.065069121458626, 5.056003278426684, 5.0550035506234074, 5.058999315257053], 'auc_6': [0.9264981, 0.9342237, 0.93421245, 0.93421316, 0.9346668]}
>>>>> Working on trial:  7
Model: "sequential_7"
_________________________________________________________________
Layer (type)                 Output Shape              Param #   
=================================================================
dense_25 (Dense)             (None, 285)               7125      
_________________________________________________________________
dropout_19 (Dropout)         (None, 285)               0         
_________________________________________________________________
dense_26 (Dense)             (None, 285)               81510     
_________________________________________________________________
dropout_20 (Dropout)         (None, 285)               0         
_________________________________________________________________
dense_27 (Dense)             (None, 285)               81510     
_________________________________________________________________
dropout_21 (Dropout)         (None, 285)               0         
_________________________________________________________________
dense_28 (Dense)             (None, 1)                 286       
=================================================================
Total params: 170,431
Trainable params: 170,431
Non-trainable params: 0
_________________________________________________________________

Epoch 00001: val_loss improved from inf to 0.37748, saving model to /storage/ECAL/deepcluster/models/bayesian_opt_v3/model_7/model.hd5

Epoch 00002: val_loss improved from 0.37748 to 0.36671, saving model to /storage/ECAL/deepcluster/models/bayesian_opt_v3/model_7/model.hd5
…
{'val_loss': [0.3774846613728096, 0.3667107023837384, 0.3541111638773192, 0.3493811177381636, 0.3470508327328203], 'val_auc_7': [0.9845224022865295, 0.985055685043335, 0.9853150844573975, 0.9856125712394714, 0.9858202934265137], 'loss': [0.42476643088292126, 0.38091116837183303, 0.3707740587073943, 0.36463222976269766, 0.36029795070886833], 'auc_7': [0.98118865, 0.9832236, 0.98371154, 0.98401946, 0.98421234]}
>>>>> Working on trial:  8
Model: "sequential_8"
_________________________________________________________________
Layer (type)                 Output Shape              Param #   
=================================================================
dense_29 (Dense)             (None, 214)               5350      
_________________________________________________________________
dropout_22 (Dropout)         (None, 214)               0         
_________________________________________________________________
dense_30 (Dense)             (None, 214)               46010     
_________________________________________________________________
dropout_23 (Dropout)         (None, 214)               0         
_________________________________________________________________
dense_31 (Dense)             (None, 214)               46010     
_________________________________________________________________
dropout_24 (Dropout)         (None, 214)               0         
_________________________________________________________________
dense_32 (Dense)             (None, 214)               46010     
_________________________________________________________________
dropout_25 (Dropout)         (None, 214)               0         
_________________________________________________________________
dense_33 (Dense)             (None, 1)                 215       
=================================================================
Total params: 143,595
Trainable params: 143,595
Non-trainable params: 0
_________________________________________________________________

Epoch 00001: val_loss improved from inf to 0.64816, saving model to /storage/ECAL/deepcluster/models/bayesian_opt_v3/model_8/model.hd5

Epoch 00002: val_loss improved from 0.64816 to 0.61993, saving model to /storage/ECAL/deepcluster/models/bayesian_opt_v3/model_8/model.hd5
…
